model/riesznet-cracks2d-ep25.pth (torch, 160218 bytes, 18 tensors)

conv1.weight f8 [16, 5, 1, 1]
00000000: 6b6a 5ca6 05d1 cc3f eb6e 583c c320 d03f
00000010: febd 3330 f818 c3bf e415 86fd 094b c73f
00000020: 8751 7ad5 92b3 d7bf bc4e 2748 d726 e1bf
00000030: 16eb 1ea5 d031 c8bf 50fc 7caf a8a1 c03f
00000040: 49f4 5960 0802 a53f d9c1 619f dac0 d3bf
00000050: 74cc 6352 3268 b6bf c3fc 0a27 2ee3 d5bf
00000060: f069 5161 3f1a c73f 848d 69f2 799c b5bf
00000070: 951f 959a 5823 d2bf 32c9 b37a 6cdc c93f
00000080: 7da7 d827 44d7 913f 0a1a f6db c1d0 c9bf
00000090: 411e f324 e9c0 cf3f 5b94 1905 3a8c d3bf
000000a0: 261c c0e1 4724 c43f 3593 14a6 0540 d83f
000000b0: 9414 3d79 058d da3f c08a ec88 b881 d03f
000000c0: 524d 2536 2f3a d63f 72cd 2405 52c2 d83f
000000d0: ed79 dca7 4549 babf 615e db2b fd93 c3bf
000000e0: a7fc e6a7 8d8a e23f 8dea 61b9 c850 c2bf
000000f0: 64ff d64a b411 d1bf aa3a eea0 9754 c63f
00000100: d6cd d320 25f1 c0bf 982b 5d3c a1f9 d1bf
00000110: 3ec0 52f6 aa71 8dbf 5861 2aca 6a84 c5bf
00000120: dcb0 f700 a9dd a83f dd8c 4367 65c2 dcbf
00000130: a80b d14a 2180 d5bf 6a70 09c6 5596 d33f
00000140: df74 bb9c 1b38 babf 3baf 3243 f66b d7bf
00000150: 7493 683c 968d d33f 7ef9 98da 3d05 cdbf
00000160: 99d7 f7b8 edc0 d83f d689 720e d602 dcbf
00000170: dc47 e72f 2b42 d3bf 8572 c418 b59e c43f
00000180: c385 d8b1 20a3 b3bf f588 b288 5c04 da3f
00000190: 9153 8a12 b84f a33f 5968 dab6 84c4 b8bf
000001a0: 0fab eaef d060 c3bf 7f65 bae7 d646 e1bf
000001b0: 7a7b 32fb 356b b6bf 6f41 8d4d a2f7 c9bf
000001c0: 5dd0 5c09 fc52 d13f 1c62 3eb4 00d6 d9bf
000001d0: f1cf 56dd f005 bf3f 54d9 7682 a681 cebf
000001e0: 67b6 e84c ce02 89bf 004e 12c5 1901 a63f
000001f0: 6a22 6c0f b30d ccbf 6180 2d69 ab76 d43f
00000200: e5a1 8e00 4516 db3f fec6 1bba 4ef7 c2bf
00000210: 3ea3 f2dd c56f d43f 4ce6 327c 7167 ba3f
00000220: 67bc 01c9 d33e c6bf 5aae 94cd 3b67 b6bf
00000230: ad3b dcef 8726 cb3f 87d7 507d 9a62 d8bf
00000240: 23fb e6cb b1a1 dfbf e545 1b88 8f3d d0bf
00000250: d8cb 506a b6cb 79bf c9c1 2ce0 6b08 dd3f
00000260: 2131 e3e9 1e3a dcbf e7cd 31c9 920a c73f
00000270: b951 36f7 e7a7 76bf 89c1 b38f 4f4a 9ebf
0.22512884734244962 0.25199967282399766 -0.14919950822466882 0.18197750929918677 -0.3703353008979992 -0.5359913262604645 -0.18902023375070404 0.12993343895684228
0.04103113342441895 -0.3086458736861722 -0.08752741347761789 -0.34199098408494083 0.18048851253372744 -0.0844188896967833 -0.2834073552698951 0.20203929892847722
0.017422738010430806 -0.20168326607036163 0.24807466797050107 -0.3054337549022585 0.15735720179529372 0.3789075967672944 0.4148572620363862 0.2579175316952096
0.3473012951628408 0.386860375426486 -0.1026805434052915 -0.15295376435709598 0.5794132499066976 -0.14309033443335686 -0.2667055827005156 0.17445655210436445
-0.1323591623582689 -0.28086119551579136 -0.014376960413159275 -0.16810355063786164 0.04856613289652653 -0.4493649967609608 -0.3359454374914841 0.3060507234529327
-0.10241863800498006 -0.3659644752722106 0.30551677607791494 -0.22672246144970737 0.3867754274682454 -0.43767310534363213 -0.30091361692495666 0.16109336575836522
-0.07670788137377031 0.406516202443654 0.03771758295366746 -0.09674863304317806 -0.1513920947521332 -0.5398973966540977 -0.08757340796226556 -0.2028696898146438
0.27068997301399184 -0.40368669130251233 0.12118440059458614 -0.23833161707234274 -0.012212383005216055 0.04297714739473335 -0.21916807416006928 0.3197430159689301
0.42323422483835166 -0.14817222678498604 0.3193220775088327 0.10314091951558985 -0.17379233660492163 -0.08751271981298583 0.2121133729164887 -0.3810182784831046
-0.4942440501435376 -0.25375736514715036 -0.006297791061160539 0.4536390008170455 -0.4410474094445523 0.18001017402603667 -0.0055312215003095406 -0.029580348153957856

conv1.bias f8 [16]
00000000: 67d3 bb94 8b25 d23f eb9e e505 1fb9 d73f
00000010: d38d 8b13 925c c9bf 666e b2de d25b c4bf
00000020: 2b81 1ef2 4f76 d7bf 505c a0da ca23 d23f
00000030: a60b 53fc 3ec0 d03f e73b 537d 71f1 933f
00000040: 64b2 81ff 3348 913f c950 f422 4c2b d6bf
00000050: 2b24 44e9 8cad a63f 5099 d92c 8e73 d3bf
00000060: 345b 1fe1 cc97 c43f bbcb b095 ee71 ccbf
00000070: fbe1 170b e4ba d33f 5d75 7504 5a33 993f
0.2835415794827924 0.37067390037417053 -0.19813753084518612 -0.159052237261551 -0.36659620899628703 0.28343459463343823 0.2617337669473109 0.019475720667113363
0.016876995534789066 -0.3463926640845441 0.04429283473479758 -0.3039279401767958 0.1608825778227697 -0.22222692784415962 0.30828190882996837 0.024609953424591925

conv2.weight f8 [32, 80, 1, 1]
00000000: 87e7 7ad3 2ec9 63bf 912f 4865 e39c bebf
00000010: bf19 bd5c 8d1e afbf 021e 1291 5b15 ae3f
00000020: 3a09 8107 e5d1 babf d0ee 2e5a a99a aa3f
00000030: d715 76ce 2e38 b23f fbf3 48e1 beb7 b0bf
00000040: 5851 1166 8a99 adbf fa05 9eff 6287 b43f
00000050: 25eb 4051 b583 a9bf b4a2 9cc0 1801 be3f
00000060: c092 9bb0 1bc2 c33f 9272 0570 2a7a bc3f
00000070: c938 787a 128f ab3f 47ab f09b 12de bd3f
00000080: 8460 34c9 7d7a 913f fdad 3492 4540 a8bf
00000090: d1b7 7aa1 c480 b7bf 7eab ddbb 339d adbf
000000a0: 2f88 e4fd 8cf1 9c3f 2c46 3130 2d61 bbbf
000000b0: f3f7 f952 6bc7 bb3f e9bd f943 b3bc babf
000000c0: 482a 14f5 6001 b83f 1f71 96ef 5589 a73f
000000d0: b595 a11d 80b1 a7bf 12d1 5edf 926b b03f
000000e0: a488 d752 e3f3 9abf bdbd 32d3 1e75 bc3f
000000f0: aba8 278d 9e3d b43f e897 ba37 d1f3 ac3f
00000100: 3b7a 688f d98b b13f f0ae 0638 9631 b3bf
00000110: 07a0 c528 c4b9 b6bf 1efb ca91 e752 9a3f
00000120: 21c1 2158 85e2 cd3f 2b25 1c90 56d4 aa3f
00000130: 51f2 3e1b 0507 b4bf 3228 78f1 f302 b1bf
00000140: 149d 1fec cd79 d1bf f278 4b64 d89b a4bf
00000150: 99f8 e0a1 c2e8 b33f 3155 7700 6b6a 9fbf
00000160: a14f ab67 17d6 b13f 5083 9b47 f3c7 bf3f
00000170: 5148 dc98 e35b af3f 2029 0c9d fa3f b0bf
00000180: eb36 0c01 e075 b83f d6d6 1c74 86cb 883f
00000190: bffa 5294 c539 c43f f178 8f90 27e1 7e3f
000001a0: 04d6 f2d4 4806 d43f 419a 3c3e d254 b4bf
000001b0: 1a24 cb1f 2b53 b03f d957 f1ed a83b bb3f
000001c0: a3b5 7c56 9a79 bd3f ba7d 6072 f7ca c1bf
000001d0: 30e2 8a52 2623 b43f bad6 b708 c14f c73f
000001e0: 6fe0 f63a c61b be3f b691 45de cc7d bf3f
000001f0: 797c 3507 e4f0 8abf a59d 772b bb66 90bf
00000200: ca82 736a 61f5 993f 71ce 2fba 013f b3bf
00000210: 35aa 3e0e 3935 c23f d217 541d 61e9 b3bf
00000220: c0ad 0c22 178b ca3f 90f3 a6df cc7b a33f
00000230: 8bd4 8238 c95e c1bf 6dc0 7602 ec55 b33f
00000240: f687 0db6 1cf5 b13f c717 cefa 5a0d a7bf
00000250: fac0 43f8 b7a4 c43f 62b2 8559 4d3b c1bf
00000260: 6669 2903 9ae2 62bf 1c7a 72ea 2430 b73f
00000270: db57 122c 89a1 afbf c265 b661 cc5b b0bf
00000280: 6b77 f123 ac32 923f 1b42 cf24 0e5b b23f
00000290: e55e 5400 2ddb bb3f 62ff 8c50 5018 b03f
000002a0: 0c99 f459 ea3b 83bf 2c54 ba54 9dbb a93f
000002b0: e569 1e07 b6a5 a73f 5fcd f3bc 906e 7bbf
000002c0: a41b 0f61 9f0a b53f 0df5 794e d515 b33f
000002d0: e2cb 2b3d 5a03 993f f5aa 79c9 7d4e ac3f
000002e0: ab2a ff8c 396c adbf 4e5d 36fb 3566 a2bf
000002f0: 0381 648e c830 bd3f 26d4 c367 8b4e 9fbf
00000300: cd8a 9b94 a112 933f 8e6f dc73 4621 8fbf
00000310: 9ccb e9ef c52f 953f 7e14 7c73 61d9 bcbf
00000320: 748f ac62 fce9 c0bf cfec 96ce 0140 b8bf
00000330: d47a 3eab d35e b0bf 9a42 0666 3d7f a53f
00000340: 881e b39f 81a2 bebf a63e a23e a17b b5bf
00000350: 1b42 8816 5cca ac3f cc40 185f b127 babf
00000360: e8e0 763e bdb2 c73f 8cdf 6cef 9b7b 813f
00000370: 7c99 bd22 0c54 aebf ddb1 6796 35a5 c6bf
00000380: f39b 9d40 2d6c 44bf 034f 302c dbb5 ac3f
00000390: 6b76 f3a2 06b2 7c3f 3440 bc0e 2174 a53f
000003a0: 7313 6c72 4ef0 b2bf efe4 77c4 beb0 973f
000003b0: e022 78d7 638a a8bf ceaa 1036 aac4 98bf
000003c0: ab49 9b40 ca5c 83bf f04c 2894 4fcc b43f
000003d0: 768d 0f45 25a2 a0bf 7ff3 d473 d8ee 7abf
000003e0: 6303 3faa 7a5e 703f fdcc 8dd9 d4a6 863f
000003f0: 9bc0 6a18 7c86 b23f 0a13 6174 8ed8 8a3f
00000400: c0be 5755 143d c4bf 716c d109 6bfb 9a3f
00000410: 5a68 faf4 5c12 b1bf 8579 e8f8 4ed6 c9bf
00000420: dee5 a29d b6c4 a63f 8a54 8992 dd21 373f
00000430: db1c e5e0 da15 a13f 364c 4abe aa75 5abf
00000440: f733 e283 b608 73bf 8df6 6b03 de19 75bf
00000450: 8d91 80ef 0eea babf 6047 270a 3651 c5bf
00000460: ba7c 6abd 05e4 bd3f c5f8 1962 4a9c b3bf
00000470: 597a b33b 3f6f b1bf c1f1 a20e ad9f b4bf
00000480: 1514 ad3f 23ef a73f d47e d890 8f30 a8bf
00000490: 256a 020e 86be c0bf 0265 bcba 89f7 9fbf
000004a0: 192c f54e a96f c5bf b6db 930e 28ac ca3f
000004b0: 56bc 3986 83da 6f3f 156d 2f89 5aa1 bf3f
000004c0: fd75 49a2 0294 bd3f c242 5608 6ba3 823f
000004d0: 19ce 34a4 bd62 d1bf fa3a a0c3 2d02 bc3f
000004e0: 4b46 c3c0 e7b9 b03f 322c 4185 8e36 b2bf
000004f0: defe 4c07 cc1a cdbf 9b5f d1f2 d4f4 813f
00000500: 04c7 9c78 4c63 903f f0bc 1c61 f00c 9ebf
00000510: 2470 8f0e 057a a43f aa78 ec73 40cb a03f
00000520: 92ed ca0b 650f 8e3f 2bfb 24ec 6e0c b1bf
00000530: 4775 7888 f5df 71bf 5fb9 0666 fb92 b9bf
00000540: 88c4 1cfd 8d0d 7f3f 84c7 997c f86a a03f
00000550: 1e03 8abc be85 a93f 0c71 82b9 6d8e c2bf
00000560: 9243 e07d 0490 b6bf 019c 004e af05 be3f
00000570: 20d0 55fe 26e4 b8bf 223b 9ea4 bd70 c1bf
00000580: ade8 9ff8 a97c 903f 0847 90ef 3325 be3f
00000590: f5d2 632c c24a b23f 29a5 1015 4c44 c23f
000005a0: 85b1 8ea1 48da 9bbf 53bd 60f7 9073 b4bf
000005b0: 7b17 6c08 8bdc b5bf 44cb 8f39 830a bbbf
000005c0: 9573 9303 af6d b83f 9666 3f3c 782c c23f
000005d0: 0e26 5b2a db12 b8bf 97c1 a8f3 2123 b33f
000005e0: eeaa 7ce7 288a 86bf eb7c 0e95 5cc5 b7bf
000005f0: 045a f0b3 044b a03f 40b1 0195 512e b1bf
00000600: 8241 065c f308 8fbf dfe1 43b9 0054 be3f
00000610: f98c e183 7813 b43f c38b ab82 154d 903f
00000620: 6cf1 5bf3 2602 c73f ae44 5692 1211 883f
00000630: fe30 30dd 4a4f bd3f 6f73 3673 5292 9dbf
00000640: 2f07 13f8 c96a a53f 7c2b 4ead ff5e b23f
00000650: f80c 8ab3 92b1 b63f 975b 35c5 fefd 8cbf
00000660: a572 6781 d388 c0bf 62bd c607 2bcf abbf
00000670: a2c7 4e91 d2f7 97bf 56b8 b2d9 1216 b53f
00000680: 5932 368f 19c6 c3bf 8413 7a13 a6a7 c13f
00000690: 14f4 9d12 a55d a13f e385 bb83 1bb9 88bf
000006a0: 7ea6 f65e 9859 b73f 86ef 8f80 1ded 85bf
000006b0: ab72 a75b 0408 be3f 9df5 deee abf0 b93f
000006c0: 4257 bca1 6228 cbbf fbaf f49e d334 b1bf
000006d0: 1761 75fa ad24 98bf 7170 864e 8354 813f
000006e0: aa9d 09d4 a0de c23f 2ac1 e5fd cb6d ab3f
000006f0: b603 175e 645d d13f 490c b6c5 464b 843f
00000700: b4ab 696d b900 c23f 6691 545c a62b 803f
00000710: b96c 3e0c 5410 b9bf 6be9 941a 36cc c03f
00000720: 71c1 c629 0960 b83f 4971 ef23 5957 aa3f
00000730: 70d5 a0fd 551e 52bf aa05 5b25 4838 c53f
00000740: c96e 9949 b303 a1bf b55e 51d7 90f8 c13f
00000750: 47f7 335d 1d24 843f 9170 0aa2 4a60 b83f
00000760: 03f3 fdfc ecda b03f 73b1 4250 99a3 9d3f
00000770: 2527 d618 b9cb b73f 6eca 11fc b606 bf3f
00000780: 1649 0e39 d10c 91bf cf5a 4285 a80a a5bf
00000790: ba3e a9ce 5da9 c4bf ab5b 2969 e366 a2bf
000007a0: af92 3a42 da22 a53f d59b 6949 d54a a53f
000007b0: 479f 728f 9964 b23f 765a 7338 0f76 b4bf
000007c0: 8555 de33 7494 a23f 8a52 2574 d75a be3f
000007d0: 9bd1 e1b4 4bb1 b53f 38ec db69 8936 af3f
000007e0: 5fa5 d13a 57bd c0bf c412 74fe 5ee4 c1bf
000007f0: 9ad7 3afd 0d8a a0bf efb3 9f64 04f4 c5bf
-0.0024152674266959026 -0.11958142492966163 -0.06077996975959676 0.05875669618495395 -0.10476523812488817 0.05196122384901758 0.07116978207167023 -0.06530373573419006
-0.05781204696600878 0.08019083729416102 -0.04983297936310852 0.1172042341464799 0.15436121104644052 0.11123910174269216 0.053825929117111544 0.11666981036311795
0.01706882992320448 -0.047365354630837665 -0.091808595107721 -0.057839981730317 0.028265192982083128 -0.10695154596876283 0.10851164603988632 -0.1044418374019568
0.09377103789680874 0.04596966313985917 -0.046276095978821465 0.06414144471529351 -0.026320983821172775 0.1111621156330704 0.07906523653187729 0.056547678044168326
0.0685401892774075 -0.07497538440537332 -0.08877206797990321 0.02570688083028038 0.23347536853135245 0.052401261416955634 -0.07823211589033831 -0.06645130772827271
-0.273059349622103 -0.04025150512983257 0.07777039005393006 -0.030679389861537124 0.06967302590356762 0.12414474962453181 0.06124793282482755 -0.06347624143760244
0.09554863000468188 0.012106943529583896 0.15801305525197581 0.007538942861144302 0.31288357539901335 -0.07941926974727044 0.06376904989441848 0.10637908753537263
0.11513676272871591 -0.13900654873667212 0.07866134181211559 0.18212140012444938 0.1176113027530634 0.12301330973202237 -0.013154775114058591 -0.016016888168363903
0.025350114938990122 -0.07518015666556167 0.14224923320337415 -0.07777983633067656 0.20736970102858088 0.03805389623764832 -0.13570513972596063 0.07552981434014479
0.07014636463784982 -0.04502376853547179 0.16127681371973052 -0.13462225791171806 -0.0023053176931117523 0.09057837222869874 -0.06177929556831404 -0.06390073190268367
0.017771424955177844 0.07170189284011778 0.10881310709043708 0.06287099806377008 -0.009391623373244083 0.05025951060557818 0.04618614994906859 -0.006697240241226281
0.08219333762745734 0.07455189863135932 0.02442685125692979 0.05528634151854376 -0.05746631475593252 -0.035936057010241926 0.11402562595731429 -0.03057306118804006
0.018625759787833474 -0.015200186167525744 0.02069005276502943 -0.11269196576547988 -0.13214068239278343 -0.09472667020502289 -0.06394694262278772 0.04198638792434402
-0.11966715001028139 -0.08391769198555696 0.056231382132072315 -0.10216816493653197 0.18514218854921372 0.008536546940021393 -0.05923498081283449 -0.176916788520784
-0.0006232472380646156 0.05607495226300154 0.007005716251311615 0.04190161995768485 -0.07397928517828038 0.02313516687533917 -0.04793083195915471 -0.024187717008468827
-0.009454326721798653 0.08124253623127564 -0.032487072639720546 -0.006575437085584278 0.003996352348566076 0.01106039322778551 0.0723645743953533 0.013108361174212674
-0.15811399619223288 0.02634970900940598 -0.0666864488688658 -0.2018526759502032 0.044469553702082484 0.00035297069056145684 0.03336986537265726 -0.0016149680533643746
-0.004646981191524616 -0.005151622047149152 -0.10513394686910811 -0.16654086585782135 0.11676059603131508 -0.07660355467848763 -0.06810374457880054 -0.08056146247230968
0.04674635078712456 -0.0472454895318585 -0.1308143204122 -0.031217720053153826 -0.16747013430935523 0.20837879859729264 0.0038883751711220977 0.12355581139802425
0.11553970777591611 0.009100757781909666 -0.27165165935295615 0.10940824533484408 0.0653366895305904 -0.07114496949468288 -0.2273802791260015 0.008767760906422775
0.016003794538113972 -0.029346233298551405 0.03999343683946702 0.03280068793377329 0.014677800581344855 -0.06659596696134133 -0.004363974679589439 -0.09989901772380481
0.007581286090315172 0.03206612130169531 0.04984851886275109 -0.14497157629092106 -0.08813503335137643 0.11727424291949264 -0.09723132809978141 -0.1362530759619967
0.01610055522903824 0.11775517080993947 0.07145322402704919 0.14270926502767026 -0.027199873791390345 -0.07988840140818824 -0.08539647060032778 -0.10562915950121715
0.09542363965324648 0.14198210660724858 -0.09403772148211706 0.07475483130179437 -0.011005706371709913 -0.09285524977757446 0.03182234474677517 -0.06711301696640692
-0.015153790708411167 0.11846928141665768 0.07842210025551201 0.015919052219839146 0.1797531784321892 0.011751313296175372 0.11449115657905293 -0.028878486902260855
0.0418303599667652 0.07176206570708915 0.08864704974444126 -0.014156332391093858 -0.12917560404357178 -0.05431494207311506 -0.02340630542648337 0.08236806692977558
-0.15448302738913602 0.13792873335856026 0.03391757824190492 -0.012071814496667116 0.09121086424297606 -0.01070616768446776 0.11730983007096067 0.1013286073857302
-0.21216996094943325 -0.06721232062108122 -0.023577421581053217 0.008461976846597193 0.1474190745677622 0.053572058432907646 0.2713251990172084 0.009909203442253782
0.14064710466786112 0.007895755474756693 -0.09790540026590379 0.13123203561719818 0.09521538991862656 0.05144766391433337 -0.0011058654549861123 0.16578008483888357
-0.03323135636739278 0.14039812577788316 0.009834508330182635 0.09521929222177251 0.0658405416160797 0.028944392703736676 0.09295231682167733 0.1211962094692269
-0.01665045653096183 -0.04109694124888607 -0.16141865340113332 -0.035941225611785775 0.04128152903039017 0.04158655663632486 0.07184753181593094 -0.07992644432247595
0.03628886349830921 0.11857363305655091 0.08473656812731749 0.060962957546472685 -0.1307782208635144 -0.13978183197482086 -0.032303273355338294 -0.17150931275628475

conv2.bias f8 [32]
00000000: e98f d8ff 7aec a8bf d321 fcf5 af83 54bf
00000010: 9a7d 7ffe 90b3 a53f 1d81 e9a0 072c b7bf
00000020: 0533 e93e 47d0 b33f 8317 7f81 bfbd 91bf
00000030: 7862 1e83 8ad6 9dbf 1e4e dd7e 1ae1 a0bf
00000040: 4811 7b9e 92f2 babf d630 b582 688d a33f
00000050: 24cc 4a1f 83e3 b5bf cf61 91c4 2c91 b4bf
00000060: a632 697f f30e bc3f 6917 e3fd b921 7bbf
00000070: ee20 3ebf 8683 b73f 3e58 0102 d039 993f
00000080: 567b 527e 970b a73f 9d88 00f0 5f6a 54bf
00000090: 9102 99fe e168 81bf 560c ac01 62d9 a03f
000000a0: d864 afc0 c246 a1bf 4450 9377 5bb0 b83f
000000b0: b85c 699c 1e19 bbbf def0 c0fe 4dc5 bb3f
000000c0: c1bf 25e0 f623 b9bf cdc6 e23c 598a abbf
000000d0: eabb 24be 41b4 b2bf 0237 e1ba 7d61 b73f
000000e0: 01d7 0342 8f0e bcbf 8df6 e940 d1b9 b73f
000000f0: e198 b200 bd8a ac3f 0a9d 4deb 9854 babf
-0.04867920277709443 -0.0012520998352006831 0.04238560778298535 -0.09051559141653738 0.07739682470237248 -0.017325393942676747 -0.02913872170720075 -0.03296740339888181
-0.10526386613043315 0.03818823428682243 -0.08550281061143089 -0.08034019278546299 0.10960313664072405 -0.006623961000689829 0.091850682916746 0.024634599802390016
0.045010313196363214 -0.0012460648431518514 -0.00850082929821497 0.03290849943552902 -0.033742986699232425 0.09644099873850204 -0.10585204428331252 0.10847938031742241
-0.09820502254819898 -0.05378989094005036 -0.07306300060439211 0.09133134663099088 -0.1095971618813927 0.09267909846126994 0.05574598916546037 -0.10285335297304612

conv3.weight f8 [40, 160, 1, 1]
00000000: d345 7a4e d955 9e3f f185 9e27 e967 aabf
00000010: faa7 6b11 f53f a0bf 9385 8ff1 3e2d b63f
00000020: 65eb 0d8b 2980 ba3f 1dbf 915b 121c a7bf
00000030: b6d7 3fc8 918d ac3f e2bb 6a38 b29b bc3f
00000040: 2a00 0fe1 a042 a93f 71ab e5d2 7b03 94bf
00000050: 6dc2 889d cd6a c6bf 9685 63a9 0419 90bf
00000060: 2b3f b3e3 247e adbf 7057 f341 7dec 9fbf
00000070: 4bbe 54f4 c0b9 abbf 7205 b3ce a4b8 90bf
00000080: 462b 8d49 1992 b5bf 20af c10d a817 b83f
00000090: 6799 959c f866 ba3f fff4 6cfb 999f b43f
000000a0: b092 8456 c9a0 b3bf 32d0 6cea 6341 ad3f
000000b0: 3bb2 f9e3 b7d3 9f3f 3002 abc7 0c54 b23f
000000c0: fd78 fbe1 bcea 8bbf 2862 9841 ea7a 99bf
000000d0: 7e81 c37e 356d abbf daf8 fc9a d0ea 88bf
000000e0: 6421 2c35 3f87 80bf a25e 77b9 cb2f aabf
000000f0: 8d10 c10d b304 b6bf c304 50c5 66e1 adbf
00000100: 8256 f586 9d5c abbf 5a15 990e 054c c23f
00000110: 555e 2f23 d0c9 c23f 9973 3474 fc1a a13f
00000120: 314b c935 553d b8bf db9e b488 35a2 ad3f
00000130: 9421 be6c fdb7 973f 9245 0301 f9a5 913f
00000140: e366 79cb 4844 c03f bda7 dc16 9491 a53f
00000150: b6a6 d431 a9a4 a9bf ed38 0082 37df 723f
00000160: 9cf5 b82f f69b c33f d4da e3f3 3bb4 acbf
00000170: ac59 5e0a 3c06 983f 2c01 7e39 8bc7 43bf
00000180: 1c5b f9be 7532 a7bf 386e 761e bf12 b23f
00000190: 940b a4a5 de25 bf3f 61b4 5fbf 3267 a3bf
000001a0: 0534 6ed7 e146 a2bf fe9f d2a2 db32 b2bf
000001b0: 6529 e171 b275 a23f 856c 6271 6b88 c43f
000001c0: 2bea 9626 0bbd ac3f 32c9 9403 6416 5cbf
000001d0: 7603 e33d 869f 71bf 3d87 2371 0c72 ad3f
000001e0: c21f 0c40 df06 a83f 243c 722e 3155 a03f
000001f0: 733b fe4e d1c2 80bf 654e 7b52 6094 b33f
00000200: dd7d a177 3fc0 ac3f 4eb2 8e3b 7e9f a93f
00000210: 8a32 bf8f dd0b b9bf 6581 85bb a126 c53f
00000220: 1ce6 05f4 ce26 a6bf 1897 e6c3 3d63 76bf
00000230: afe1 7f21 637d aa3f 8737 5151 7d74 c23f
00000240: 9378 6d2d 9935 553f 73d1 08e3 af31 c1bf
00000250: 66a5 73ef c773 aebf 1863 fe25 2c96 c1bf
00000260: 5cd3 f1f1 1f01 ae3f 9e3f 4baf 4efa ad3f
00000270: 0005 b032 9253 c0bf 6352 69a6 34d6 943f
00000280: fcd0 19c5 e04a a73f 1a0e a593 d70b 76bf
00000290: 33da 0fb4 dd9e a13f 037a 9da4 8601 ba3f
000002a0: 6348 adc1 263a bdbf 2bcf 4971 0e24 a93f
000002b0: d8ca 1b94 70e4 b7bf d622 ea48 99c8 aebf
000002c0: 21a1 087a 8da8 a4bf 44c1 3f72 4eb5 933f
000002d0: 3940 7e0b fe6c be3f 858e 886d dce5 a2bf
000002e0: 5efb 8862 afee 6dbf 77c3 4e8f 80eb b0bf
000002f0: 756a 47b3 a760 af3f 7ceb d123 232a a7bf
00000300: 83c6 a599 40ca a5bf cabc efd9 92c7 ba3f
00000310: 822c 9374 426a 98bf 993f e730 b2f2 bcbf
00000320: af27 696e ce6e 8f3f 9588 9c81 10ad a2bf
00000330: a299 00e1 59e9 ac3f 3a20 c9fc ddde a53f
00000340: 6066 b91e 9aae a83f df2e 5683 d74e 9abf
00000350: 53c0 aa34 72d6 b5bf 8a12 8957 94c1 ccbf
00000360: 3d64 01f0 86d9 b63f 886d e9f9 9020 b0bf
00000370: 2d27 5035 7ce0 933f 4784 32b2 05a4 c93f
00000380: afd9 f80f 8293 bbbf 92d6 4b77 6cb7 bdbf
00000390: a0f9 da42 77b1 b3bf 52f3 10b2 5273 903f
000003a0: 968b 5453 26b7 9b3f 47a7 3347 d68a 963f
000003b0: 0307 dd78 fc4d b0bf 0b8b 982e ee37 ad3f
000003c0: c94c e57b 03f8 a7bf f7dc 3917 2460 9fbf
000003d0: 12b3 4572 4c37 c5bf 7e30 bb7a b7ed c1bf
000003e0: 0ab7 b417 6d26 8b3f 58c8 5625 8c2a a7bf
000003f0: cbce 728e bd51 9a3f cfb3 415f 8265 7e3f
00000400: 022a ee68 86e4 933f 0e94 88a6 41c8 b93f
00000410: 037b ad78 3cf6 b53f 8832 cdd3 80e0 b23f
00000420: b29c e32e 13a3 abbf fff6 9c4e ea8c a93f
00000430: e4ff 8273 4a85 c13f b0f5 0cd1 aaf1 c9bf
00000440: bbca e761 ff16 b53f 130d cef4 9656 a03f
00000450: 3415 ab58 6a06 a2bf acb8 92d3 5df0 b1bf
00000460: 9ba3 7c6f e6e0 ccbf 799b b09e 0c87 a1bf
00000470: d3f7 9022 e390 923f b3d2 83c3 fa04 adbf
00000480: d600 ae38 13a6 b73f 023c b635 6b14 a2bf
00000490: c96d c0c0 6d12 b5bf 153e 06b9 2ec6 a0bf
000004a0: 799a 1148 25f5 aa3f 77f8 89aa 156a 933f
000004b0: 06e8 cfbc 4b91 943f 85fe 4028 2432 a83f
000004c0: 51f9 3a6c 770a c0bf 3f5e cdd5 0f0a b3bf
000004d0: 0aee a2fe d6fd b5bf 84dc 3775 7739 953f
000004e0: f25b ead3 ba8d ab3f d421 41d8 56ee a1bf
000004f0: 0445 ffaf 4aaa a7bf eb16 4abc c983 6bbf
00000500: 157e 99be 4035 82bf 7349 e90f 8c73 a93f
00000510: 4c60 be02 003b b6bf 3259 7b4f 0fcf a0bf
00000520: 2ff1 c858 3959 a93f d693 64f7 5b4f 85bf
00000530: b7fa 1b3b 7f21 a4bf 1393 c586 4c76 7d3f
00000540: b695 00fa 83d2 9bbf ecea 4f3d a60d 673f
00000550: b0fb b42b bf59 913f 2856 231f f96a c33f
00000560: ff19 361c 15e0 b1bf a4c5 82e0 fb8e b33f
00000570: 6892 3f55 04d0 a23f 8d4d 88ac fdcb ad3f
00000580: 752e cfb8 2bcf ad3f 6345 4abe dad5 babf
00000590: 1008 e14d d175 9cbf 9cb6 cda9 582a a9bf
000005a0: d627 031a 8af4 6dbf a9e7 5e3d b197 66bf
000005b0: a0d3 6b08 af66 ae3f eeec 6776 dcba 67bf
000005c0: 7d8f 9789 3437 c03f b83f 2ef1 8ac2 9e3f
000005d0: 4409 54fd 4283 c0bf 425b 9e07 d72d 9d3f
000005e0: 7808 f3c5 4069 a9bf a1a7 8a2d c6ea b0bf
000005f0: 3ae1 1517 ccbd b3bf 0dee 4ff8 7d26 81bf
00000600: 2814 f10d f7ce ab3f 9d83 9ab9 4432 ac3f
00000610: 9e2a c02e 41b7 b53f 01cc 0871 0be8 ab3f
00000620: b0bf 3918 0ea8 99bf db00 8d65 cf9f 94bf
00000630: 647d c2e9 cf55 b83f 4fc7 7c25 7c8c c3bf
00000640: 5624 b4eb 8a53 a83f 1ba9 f6e0 34a1 c13f
00000650: 26d1 48b1 7333 b6bf 0370 5d6c 2f2d 833f
00000660: b508 1097 c38c cabf 2b47 4dd0 ef9b a53f
00000670: b2e8 a0b9 2538 ad3f d827 973a a4b3 86bf
00000680: 693d 79c9 5247 b53f 1f00 6625 a4bc bbbf
00000690: a3a9 63dc 33d8 a03f ff3b 3afe c766 b6bf
000006a0: d07a dd13 6cb8 68bf b711 b4e1 aabe a03f
000006b0: 7365 e9ee 8a5f c03f 82e5 033c b3f3 893f
000006c0: 84aa d7f2 d1de b5bf e6fa 030c 82d8 903f
000006d0: 7886 efe3 3105 ac3f 6ebf 7c76 6f77 b73f
000006e0: 3a5b 447e 5b3f 89bf 757b dca1 dd05 bf3f
000006f0: 911d 4c9d 7475 9b3f 6871 cbf4 6955 c23f
00000700: 3cc8 480f 7a7a b2bf 1ed9 2e44 e464 c3bf
00000710: f1d8 4044 2a6b b5bf 77a0 4801 b711 babf
00000720: 4bf0 cbe8 3db0 babf 9bf4 eb93 43c6 c43f
00000730: 438b 20b2 f1bf b7bf 660d 1f42 7f19 86bf
00000740: 70d2 5fbe 90c9 b13f c632 edb3 35e4 94bf
00000750: 61e1 9866 7584 7cbf c41e 0d02 bc93 b3bf
00000760: 21be 7785 e354 97bf 553a f7d6 7332 a23f
00000770: 3261 50e0 dd2a 95bf 057b 076a efe7 88bf
00000780: 4452 0ca8 68d8 ab3f 99a3 99c5 702f a9bf
00000790: 1f27 d953 27ce bcbf 5949 3018 90ea b2bf
000007a0: a486 bb29 034e adbf 6a57 f6b1 8a39 94bf
000007b0: 33cc 0b85 51b8 a13f c96c e576 f024 983f
000007c0: 1a72 3118 e409 b5bf 58dc f88b b2c1 91bf
000007d0: 6714 fbb6 0bd1 b1bf 06fc 8fe0 d6b8 91bf
000007e0: 064d a3e4 3cf3 a5bf 2139 0e09 222b 843f
000007f0: 9b58 4683 89e2 82bf 0e71 28d1 6aa0 ac3f
0.029624362387556346 -0.05157402619012064 -0.03173795545247056 0.08662789723850599 0.10351810116655498 -0.045136045148750116 0.055767589277749094 0.1117507350670475
0.049336459610913444 -0.019544539210453352 -0.17513437454319405 -0.015720436896008737 -0.057603028102333496 -0.031175572538664154 -0.05415156347805502 -0.016329360118793664
-0.08426054044427386 0.09411096893171278 0.10313371489391941 0.08056032551117552 -0.07667215692760965 0.05713951336511548 0.031081078805458722 0.07159500002581676
-0.013631320616181325 -0.02488294625627155 -0.053567573284229106 -0.012166623811591771 -0.008070462999527357 -0.05114590300553103 -0.08600920759005444 -0.05836030157662144
-0.05344097397270976 0.14294493878166287 0.1467838451196594 0.033409012971083736 -0.09468586505071809 0.057878182351769523 0.02316280342304962 0.017234697996916966
0.12708387313141775 0.04212630061222409 -0.050084388096661867 0.004607407405286629 0.1531970723171242 -0.05606257774518544 0.02346128285679476 -0.0006036214644922536
-0.04530685383058694 0.07059854978290836 0.1216715959927071 -0.03789671503168602 -0.03569703821913354 -0.07108853078045738 0.03605420723086431 0.16041319881773944
0.05612978788436281 -0.0017143227290260074 -0.004302524930779641 0.05751074677551891 0.046927429741173934 0.03189996425600608 -0.008184085105112015 0.07648279203140758
0.056154235223171624 0.050044960756484444 -0.09783730277485794 0.1652414479858734 -0.043264834678620384 -0.00546573760076343 0.05173787864618206 0.1441799780899908
0.0012945171235610217 -0.13432882867494875 -0.05947708890910057 -0.13739539961968528 0.05860233143258739 0.05855031862085912 -0.12755038714389144 0.020348379761644952
0.04549314886108566 -0.005382387253408472 0.03441517661115192 0.1015857841389121 -0.11416856983604044 0.049103213624134355 -0.09332946411067711 -0.06012419714995125
-0.04034845461530013 0.019246316645820785 0.11885059147448453 -0.03690995060995043 -0.003653852985990565 -0.06609347819063581 0.06128429473365752 -0.045243356821592834
-0.04255868793087549 0.10460775204386433 -0.02384284817234717 -0.11307824796608514 0.015348065132588433 -0.036476627179824174 0.05646782752619407 0.042715966327307744
0.048207107782854974 -0.025691382781174773 -0.08530343805137024 -0.2246575763148438 0.08925670012958249 -0.06299692250597932 0.019411030534718755 0.20031806183854625
-0.10771954431479601 -0.11608007347589425 -0.07692666418276994 0.016064922445582504 0.027065848194193963 0.022013996215640288 -0.06368997526899638 0.05706734007642041
-0.04681406867407529 -0.030640186231235735 -0.16575007991505025 -0.14006703846678542 0.013256885801264957 -0.04524648624227784 0.02570244008957338 0.007421025529862526
0.019426441339911456 0.10071192088851452 0.08578851648551837 0.073738147458423 -0.053978538011329916 0.04990322312958816 0.13688021316738663 -0.20268759925413127
0.08238216533917868 0.03191062677708536 -0.03520519573570838 -0.07007395186767224 -0.22561340755171674 -0.03423346936351996 0.018130825981863396 -0.05667861591965586
0.09237785466939682 -0.03531203299200315 -0.08231244998790212 -0.032762012563690636 0.05265156273599287 0.01895936826121455 0.020085509680917844 0.04725754729633728
-0.12531941208539846 -0.07437228174000497 -0.08590453831396175 0.02072703030532043 0.053815687531077475 -0.035021509073491025 -0.04622109793093368 -0.003358739866885387
-0.00889063436187513 0.04970967954854446 -0.0868377691934949 -0.03282974095570736 0.04950885018158357 -0.010405271994906966 -0.03931806179570201 0.007192896777586072
-0.027170240529945842 0.002814125715756224 0.016943919222508874 0.15170206089412486 -0.06982547701600338 0.07640051108571427 0.03674329319600106 0.05819695216282659
0.05822121268246586 -0.10482566018824495 -0.027793188455923767 -0.04915120194241959 -0.003656644563396742 -0.0027578794206108603 0.05937716462896181 -0.002896719542375351
0.12668472975121495 0.030038996668338064 -0.129005788512652 0.028495178070069523 -0.04963114181875111 -0.0660823689637753 -0.07711482585535104 -0.00837419904745842
0.05431339307009636 0.055071017891584285 0.0848274935853319 0.054504735515727994 -0.025055141666996128 -0.020140877316635702 0.09505938965820843 -0.15272476034584279
0.04751237990610295 0.13773213371798296 -0.08672259405358726 0.009363527769600926 -0.20742077709298248 0.042205328156923315 0.05706899538968581 -0.011084826505697906
0.08311955851353549 -0.10834718621299587 0.0328994947938839 -0.08750581700063263 -0.0030176268473235193 0.03270467763107681 0.12791573205576476 0.012671852368373097
-0.08543121508379597 0.016450912459727095 0.05472713382165478 0.09166618960148096 -0.012327875891555363 0.12118325425806893 0.026815244770686034 0.14323162510744258
-0.07218134759094225 -0.15151646928070134 -0.08366645971623023 -0.10183280736294074 -0.10425173696052174 0.16230053637255967 -0.09277258490378153 -0.010790819363939174
0.06948189399538207 -0.020401801211209734 -0.006962259861716142 -0.0764729981429993 -0.02278476240274874 0.03554117201894217 -0.020671335998572356 -0.01216113130879882
0.05438544322365549 -0.049190067406761524 -0.112520654650464 -0.07389164534132443 -0.05723581203870978 -0.01975075446315292 0.03460936307046616 0.023578412300918204
-0.08218217459347735 -0.017340459626407373 -0.06959603516868783 -0.017306668716624805 -0.04287138262739103 0.009847894574502693 -0.00922114784115662 0.05591138652036608

conv3.bias f8 [40]
00000000: 68e4 0983 fc3c 953f 8851 4c7c edc5 943f
00000010: 4563 1e00 091f 85bf e49c 315f 0e24 b3bf
00000020: 00dd 8c41 40b4 aabf 4f1b 403e 32e4 a83f
00000030: fec7 037e 11b2 afbf a3dc 1520 b9d7 abbf
00000040: 13ef 6d00 ed86 a6bf 8f2d 6bd6 0182 113f
00000050: e48d b17f 5f79 b0bf 111d ba42 ed05 af3f
00000060: df0a 20bf be71 a3bf be65 3640 8c26 a53f
00000070: 4948 0d41 296d a63f 8d55 fc01 5810 783f
00000080: 1a85 09ff 072e 9fbf 692b 493f 2be9 a13f
00000090: 8dcd 54c1 4b8d a33f f848 d73f b117 af3f
000000a0: 076f 7a00 6b5a a7bf 45e4 88e0 7d57 a4bf
000000b0: 2ba8 c5de 2781 b13f 025e 5ce2 184b a1bf
000000c0: 4d6e bcbf 5641 a83f 8f74 e63e d95f a3bf
000000d0: 105e 6381 0b29 96bf 1ead 859f 30ee b1bf
000000e0: 0937 7041 2c5b ad3f 61eb 3f9f 8b51 a1bf
000000f0: 9aca 7cbf 7773 a73f 463e 3a05 f2cf 76bf
00000100: f3b3 91a0 01df b33f 223c 2009 6486 63bf
00000110: 22ca 1cff ac04 96bf e56f 5901 449f a3bf
00000120: 9826 a1ff 350d 82bf 6c25 7fdf d254 a1bf
00000130: 90a0 9e80 9822 953f f580 fe3f 170c a93f
0.020740457056011158 0.020286284171633834 -0.01031310111629725 -0.07476892303531063 -0.052156455995310935 0.04861599931614668 -0.06190542853609314 -0.054380211989092396
-0.043998152067585526 6.678711143164581e-05 -0.06435200564879257 0.060592092891108014 -0.03797718127318261 0.04130972179263946 0.043801583472160184 0.0058749616435042175
-0.03044903272746522 0.034982062793082865 0.03818737730980635 0.060727633517346946 -0.045611709411984384 -0.03973000875380043 0.06837701023837954 -0.033776071197447535
0.047373495965271496 -0.037840641906975774 -0.021640949032045553 -0.07004073996147439 0.05733621882255419 -0.03382526701894651 0.04580282413953292 -0.0055694059298186434
0.0776215569510013 -0.002383418447613931 -0.021502211638287368 -0.038324475445477714 -0.008814260352795686 -0.03385027864676257 0.02063978467018096 0.04892037063769009

conv4.weight f8 [48, 200, 1, 1]
00000000: 947c 3023 5e2d abbf dd22 47a0 3aee b7bf
00000010: fdf6 9fee 2c81 a4bf 7eca 3b7b 9264 be3f
00000020: 06c5 3308 3005 c6bf 60ad 9d17 3a07 acbf
00000030: 7dcb c4f2 3d39 86bf 965f 38e4 d867 b43f
00000040: cf4d cfde 0116 a73f 056d 027c d78e 9dbf
00000050: 5da7 7b7e 584e 88bf eb06 21a4 f95f b5bf
00000060: f6be 4c4d 2ebc 70bf 3ab1 add2 542d 673f
00000070: 0358 8040 1d0e 43bf 6f10 1058 70f7 95bf
00000080: f37f ab19 5bcb b2bf 392b bc3b 3157 b0bf
00000090: ba47 26cd 18e7 783f 0c69 6211 2d5f b3bf
000000a0: b056 a39d acb6 9f3f 298f 1f3f 1907 273f
000000b0: 596f 1332 3fc1 723f fefa 7171 f9c8 bf3f
000000c0: ef8d 5716 92a0 813f 4699 e7fe f535 a4bf
000000d0: 2f2b 1ec1 e892 c33f 7728 4602 41cb b33f
000000e0: e9be be2f 6615 92bf ed6e ce04 d149 b3bf
000000f0: efc9 e927 9c52 a73f b183 571c f76f 913f
00000100: 1215 d03c 0f8a a4bf 7e61 6c89 7265 96bf
00000110: 6dea 4d0c 5d00 9b3f 243d 7182 c8ae 883f
00000120: 5768 f26f 5c46 9b3f 649d a2d7 37a9 a9bf
00000130: b193 f7e8 b009 a33f 0f41 6bc3 c492 983f
00000140: 0f35 b7ca 4032 ba3f 13dc 0e75 2ae6 b9bf
00000150: 355d 8480 520a 9abf 1fc0 5e8f 110a a1bf
00000160: d797 c290 e414 90bf 73c4 da6d 8f38 85bf
00000170: bd05 b952 9d3b 96bf a0b4 0d18 d08a b1bf
00000180: bd32 5c30 81c8 76bf a0d9 8f32 15e8 bebf
00000190: 7f89 a640 34b0 b43f 76bb 08d7 3272 a73f
000001a0: 50b9 7404 32a6 babf a728 984c 5e00 a9bf
000001b0: ae69 7047 34ac b1bf 1026 d714 8613 a4bf
000001c0: 11e7 e90d cf30 b1bf 3755 21d7 6a51 b1bf
000001d0: dffb 79c5 3bd5 b0bf b151 a0d4 91e3 93bf
000001e0: 04f9 0a4e e839 803f 0c8e 0d34 d373 a83f
000001f0: 43ec 52b7 033d 97bf ad25 e235 cee6 913f
00000200: d382 eb34 4064 c1bf 9cc0 0e7f 22a9 c4bf
00000210: c404 9d24 9d65 a7bf 8ad4 1cdd 9627 813f
00000220: b7bf d958 5134 b0bf 0add 66bb 66c5 af3f
00000230: 6d1c 4753 37f3 ba3f 7093 bff0 6bbb b3bf
00000240: d572 c56f 1a06 b7bf 9ee9 655d 5c27 93bf
00000250: b221 9139 f6e1 93bf fec8 6961 1dae 9f3f
00000260: b847 718e b07c aa3f a189 f97f 26b5 b03f
00000270: 66ef 607f 4e8f bebf 3d02 14de 3b0d 803f
00000280: 0f90 46da df39 71bf 8560 2010 f749 b8bf
00000290: c7fb d845 0d2e adbf c1b2 e57d 7ea5 903f
000002a0: 30ce a021 fd12 ac3f 2039 04a9 3265 70bf
000002b0: 8ea9 4fa6 2afb 863f 0367 939f 55cb adbf
000002c0: 876e d132 d350 83bf b97f 7b56 abc6 893f
000002d0: c84e eb29 6890 b23f 2be6 f72f 3869 ab3f
000002e0: acc1 c9a5 f5b4 b5bf 7dd3 a18f 65fd 873f
000002f0: 0c63 807f abcb 77bf 7fdd 0ea0 3cb7 c0bf
00000300: 7919 2886 1841 ac3f dd0a 9273 95aa bebf
00000310: 5ae3 fe82 c398 8abf 9016 efd9 e01d ac3f
00000320: df0f 9356 67bd a53f 98c2 80c0 5b39 aebf
00000330: 2e58 dc80 1aa4 a23f fe6d 28f8 13b5 9fbf
00000340: 6ee1 1a92 f5f9 95bf 030a 0426 49c3 b03f
00000350: 54da 3234 290c bcbf ddc4 a9a9 d8c9 99bf
00000360: f359 9be5 1e85 c6bf 635d 8e8b 2d82 b63f
00000370: 00e6 fbd1 62ba 83be 4f50 84ad d586 a7bf
00000380: ad7a 2b8a 9c76 b9bf 2eba c6b2 891f adbf
00000390: 0413 1e44 2dd7 b3bf e74e 3ff2 8b78 bfbf
000003a0: a6e7 9475 20b9 a13f 1e0f 51b2 0e6c 9ebf
000003b0: dcd9 0663 0057 acbf bebd e366 bc63 b2bf
000003c0: ac56 8ede 1fd9 a83f 754c d653 f9d8 9f3f
000003d0: 20ce 315d 03f6 a0bf d2ff 0e15 5854 c0bf
000003e0: 16f1 1ea3 7c1b b63f ed7d fcf4 e938 8b3f
000003f0: 6cc8 dead 906c a1bf 26f0 b0dd b56e b93f
00000400: 38b0 060d 9291 b93f a896 4bef 24bd 7cbf
00000410: 2257 3f15 bb3f aebf 72db 3efe 56b3 be3f
00000420: 6bd5 05e0 05f2 aa3f 63c8 2297 3052 9cbf
00000430: 1984 1be6 abbd b73f c5da 7377 d082 c1bf
00000440: d2e1 265d 83e1 c73f b3c3 ecce c997 923f
00000450: d77b 46a6 9a03 aebf b47f 8df7 d926 b43f
00000460: b81d b0a5 59f2 573f 07a3 b1d6 a6e1 98bf
00000470: fbce 1fc9 17a7 b13f 7363 4133 fabd ae3f
00000480: 35b3 e5c1 146e b73f 8e77 560c dbb4 b03f
00000490: e3ae ea60 f71b cd3f edb0 aed9 f49d b6bf
000004a0: 895c 9904 9ef1 c93f 6d11 5655 cdf5 a8bf
000004b0: 18df 6c0c c7be a33f 0882 bea0 e1bd 9d3f
000004c0: 7a32 cdfc d128 be3f 4bfd 0387 403e 9a3f
000004d0: b401 dbd9 8a25 a43f 839b 9af4 0585 9cbf
000004e0: 32b3 5b36 f812 ba3f 70fb 2ca0 6770 ba3f
000004f0: 00bd 65c9 8956 74bf ee76 70ac e8a1 c2bf
00000500: b10a 1e07 435f a0bf 198a 18cb 16d1 a2bf
00000510: 3ea5 665a 3abf 80bf 5202 2e64 2f6a b8bf
00000520: 79ef 4bd9 dd70 b93f 97e4 1345 b2a5 a2bf
00000530: 416b 60ba 88f9 abbf ecaf 2571 b51d abbf
00000540: c066 b912 d50a 8cbf a447 1edd 0060 bdbf
00000550: aae8 d082 eafe b1bf 6134 1665 953e 7bbf
00000560: 0a07 a90f ce69 b9bf 2034 0d3c 32a1 b2bf
00000570: 653b be2a 54ff a5bf c014 6778 6475 bdbf
00000580: d2cb 4901 229f bb3f 5a41 5c97 f20e b3bf
00000590: f00c 211b f488 b6bf c6d9 540d f97e a13f
000005a0: 10ae 0249 2079 adbf d26b 5118 1672 62bf
000005b0: 92e5 13a2 6ce2 933f 8bf5 6dc6 afde aebf
000005c0: eb93 58cc a8a9 a53f 83ab 7f0f c776 b43f
000005d0: 21c5 b4da cf1b bebf 9c80 7d73 06d4 bbbf
000005e0: 1a99 41d3 b9e1 babf 8b27 88cb 613c a0bf
000005f0: bb07 5951 fb18 a33f 4dc7 e768 be5d b9bf
00000600: 2c3f 10d2 3eda b63f d48b 4047 e752 c1bf
00000610: 6202 64b9 1ebe c1bf 9f8c 8f5a 3487 b3bf
00000620: c10c 6510 8f47 663f 94f8 06a9 4cbc c3bf
00000630: a837 0623 bb96 a4bf 743f 9a6f 0eff a23f
00000640: 04e4 639e 2547 913f 0c82 f94d 79ab 86bf
00000650: 65f6 3b68 7d74 aabf 1a8d 55fc c943 ba3f
00000660: 1bcf 602e 1459 c33f ef42 8c21 3d75 a63f
00000670: 8591 6763 0f2e b0bf 8769 fe7e 8a16 aa3f
00000680: a89e 7af7 ea14 b2bf a281 05d4 19f8 85bf
00000690: f3c6 d752 1b42 80bf c6df 274c 6c3b c0bf
000006a0: 5cda e0ff 2f0c b5bf d894 6c5c 1b65 bdbf
000006b0: d23a 5203 eae2 8a3f b635 42fa 4ac0 b33f
000006c0: 3dab 62f9 41af b1bf 2b9c f281 7fe0 ae3f
000006d0: 4449 f7f9 58e1 c03f a58a 0f18 1922 b3bf
000006e0: d2a4 a738 f392 81bf 9e20 278a 7372 b8bf
000006f0: f7e7 7051 5a1e a43f f159 9800 8635 9dbf
00000700: e2fa 520b fbb2 773f 1e2d c152 585b 21bf
00000710: fa0d 63ef e623 b93f 1ddb 56c0 84c6 8abf
00000720: f9f7 8efd 8c98 bcbf 715d 3273 eaf0 b5bf
00000730: 1907 7e98 1a89 b6bf 859c 6a2d 277e a9bf
00000740: 8535 b74d 0015 b6bf c368 ba5b cb7e bb3f
00000750: 17e2 8f11 1268 b13f 2249 72bc 0ba4 b0bf
00000760: 5021 4bc9 d60f babf 0a69 7e1f 204c bcbf
00000770: 22a0 a7d0 a6fc 963f 4eb6 c465 a6af 68bf
00000780: 5bea 2f7c 3e95 a93f 0cfd 0e50 1049 373f
00000790: 0549 48b8 5c5f b6bf 1cf8 469f fbb8 b03f
000007a0: d936 7457 3830 b63f 9588 f799 c054 b23f
000007b0: 7954 e196 23e5 71bf 5fbd 9331 55d8 863f
000007c0: 0876 52d6 8599 a53f 0c49 3380 7e9a c3bf
000007d0: c5ff 896e bc7d b9bf 4e40 776a eb83 90bf
000007e0: 78aa c3e3 96c0 9dbf 309c 4bf5 4d6b a93f
000007f0: 2a74 f854 86a1 56bf 5a53 1a37 2ea0 c03f
-0.053080503268796125 -0.09347883618387294 -0.04004803097630647 0.11872210987693596 -0.17203331375598213 -0.05474263704567295 -0.010851367922986683 0.07970958301336703
0.04508977742048225 -0.028865210479676957 -0.011868182525592347 -0.08349571473175003 -0.0040857132596980785 0.002829232854699407 -0.0005815165359333022 -0.02145171678058982
-0.07341546417910631 -0.06383044918417803 0.006079766159375605 -0.07567102121757702 0.03097028457781076 0.00017568762956365308 0.00457882581505572 0.12416037578257641
0.008607045466255207 -0.039474189153951886 0.15292081288893075 0.07732015901106758 -0.01765975634015052 -0.07534510009139313 0.04555213916036737 0.017028676133012236
-0.0401158105596925 -0.021871366155296716 0.026368574024198944 0.012052122574600484 0.026635593731591047 -0.05011915690675542 0.0371833118804611 0.02399737780325589
0.10232930134880668 -0.10116830213415566 -0.025430001348550852 -0.03327994227527164 -0.015704699836213223 -0.010361786403651351 -0.02171178643607673 -0.06852436625713887
-0.005562309879462543 -0.12072880253240337 0.08081366136915412 0.045793141125947054 -0.10409844025409609 -0.04883093533506271 -0.06903387779349288 -0.03921145443343843
-0.06715101327600005 -0.06764858009531315 -0.06575368472293473 -0.01942279682414644 0.007922949678115028 0.04775867472087833 -0.022693689407543138 0.017482015646725624
-0.13587191184981026 -0.16141158298478764 -0.045697127074626503 0.008376291868993375 -0.0632983056946149 0.06205292737598185 0.10527368338726868 -0.07707857730527023
-0.08993687847891903 -0.01870483703667391 -0.019416663421255094 0.030937632628089233 0.05173255671310478 0.06526413559325885 -0.11937418565588373 0.007837741579806873
-0.00420558397710026 -0.09487861770355906 -0.05699197270995842 0.0162563099233235 0.054832373003958046 -0.004002759829985686 0.011221249771513422 -0.05819194386431372
-0.009431505192132107 0.01258596284554857 0.07251597426812417 0.05353713594008654 -0.08479247376977267 0.011713784642987108 -0.00580946914126269 -0.1305919438870937
0.05518414151815682 -0.11979040214104537 -0.01298668616787928 0.054915453532470626 0.04246066028420591 -0.05903135990991365 0.03640826056486933 -0.030964195271833354
-0.02146133140806355 0.06547982385749411 -0.10956056141262965 -0.02518404517690419 -0.1759375210883288 0.08792385728007938 -1.4698557836822091e-07 -0.04595058196187606
-0.09946611760413289 -0.056881239960933846 -0.07750208771728856 -0.12293314613571803 0.03461553035090441 -0.02970908130033855 -0.05535126885245109 -0.07183434974626032
0.0485315283942048 0.031101127378473998 -0.033126931310928365 -0.12757397678615107 0.08635691626017591 0.01329214838875622 -0.03403141138495944 0.09934555685407584
0.0998774797250811 -0.007016319538455974 -0.05907997736328087 0.11992400843778997 0.05262773856785937 -0.027657279228784037 0.0927379071031428 -0.13680463631290798
0.18656961487228202 0.01815715146512149 -0.05862124709823718 0.07871782583015269 0.0014615893803709822 -0.024298292974353177 0.06895588550815639 0.06004316211391982
0.09152345403499569 0.06525963832106482 0.2274159644342638 -0.08834772409926801 0.20268607353748205 -0.04875032107068731 0.03856489206958552 0.029044652401013976
0.117810367793206 0.02562809776372647 0.039348925679863284 -0.027851193479957025 0.1018519528112847 0.1032776609472259 -0.004965341786699939 -0.14556606693161406
-0.03197679006463739 -0.03675147275159336 -0.00817723835355599 -0.09537025638383881 0.09937845759480791 -0.03642041295274472 -0.0546381690512221 -0.05296103483382794
-0.013692536004941913 -0.11474614523311161 -0.0702959603667376 -0.006651481221877282 -0.0992707050545755 -0.0727721592531485 -0.042963628976500336 -0.11507251681821895
0.10789692431880774 -0.07444683261224352 -0.08802724516231186 0.03417185104119684 -0.05756474391213484 -0.002251666216165551 0.019418427841605253 -0.0602927140925927
0.04231002325494856 0.07993740204226012 -0.11761187638764571 -0.10870399779878642 -0.10500680358527284 -0.03171067819137282 0.037299970321796626 -0.0990866666905081
0.08926766041281259 -0.1353425119314965 -0.13861450245169055 -0.07628180705028108 0.0027196687907760923 -0.1541839433029436 -0.04021248629133761 0.03710217583022671
0.016872966568346484 -0.011069247905823885 -0.05166999719038471 0.1025968781519179 0.1511559702354298 0.04386321100731105 -0.0632028215109753 0.050953224184200833
-0.07063168088881844 -0.010727121146090483 -0.00793858858648686 -0.1268134471754349 -0.08221721646337116 -0.11482401853989488 0.013128116823535239 0.07715290651159176
-0.06908047045241701 0.06030653439784602 0.13187706189507697 -0.07473904454631482 -0.00858106629034908 -0.09549638865348917 0.039294073525937216 -0.028524488245318783
0.0057859236159731615 -0.00013242200054928375 0.0982040724220993 -0.01307395660374549 -0.11170273962395062 -0.08570733368320817 -0.08802953932720604 -0.049790596288681356
-0.08625795266489973 0.10740347852189118 0.06799424103508787 -0.06500314093344575 -0.10180418409720926 -0.11053658265010227 0.02244816444900278 -0.003013443942242933
0.04996676698643362 0.00035530708560922784 -0.0873926114948383 0.06532261503795705 0.08667328009706966 0.07160571822126578 -0.004368914624213288 0.011154809546921994
0.04218691102253663 -0.15315228709966566 -0.09957483004291053 -0.016128233311804067 -0.029054982806807378 0.049646793549804946 -0.0013812839350813102 0.1298883217865761

conv4.bias f8 [48]
00000000: 219d 9621 2e92 afbf 24e4 3700 9a95 a43f
00000010: c03c a741 90f6 a53f 2ad8 e47f af25 8ebf
00000020: 30bb f21f 1322 b13f 8d37 4400 7cde 96bf
00000030: 04b1 b07f 1b0a 81bf 8869 e15f 52d1 b03f
00000040: 81b0 3383 817c 83bf 5d2d b402 0c47 afbf
00000050: 8a0e 27c2 3f7d ac3f cc14 085f 96c0 b13f
00000060: 7f11 fd00 7939 82bf 8821 2081 9077 a0bf
00000070: 6be9 c8ff 8754 5ebf cb13 c77e 0c79 a6bf
00000080: ae75 4a02 da7b 91bf dbb5 dd01 7c33 a03f
00000090: 3fde a2ff 2cbc a23f f765 91e0 1b93 aabf
000000a0: f97f eaff 1f14 5f3f c53c 693f 51ad a43f
000000b0: 3016 77ff 9105 823f 265c c0be 361f ad3f
000000c0: 7fef ec3f 31d2 a63f 8380 d700 d8b8 80bf
000000d0: e1e9 c4c0 8158 a1bf 4604 5bfd 7d6a a6bf
000000e0: 5a71 7abf b57d a13f 2929 f43f 08f2 a1bf
000000f0: 27f4 283f cc43 a63f 8bbd 7f81 e3b9 9abf
00000100: bfb8 2500 2e17 99bf 0580 d581 a288 81bf
00000110: a825 8a40 01a2 aebf 92de 2686 c69b 9ebf
00000120: 1bf1 f040 4894 a13f b83c 253f be74 a23f
00000130: 34f9 8602 1ee8 92bf 77b0 043e 30f8 b0bf
00000140: 08ca ef05 6b13 a4bf 6536 c460 af94 a1bf
00000150: 4822 0dff 4b95 7fbf 24d6 a1bf 2e56 aa3f
00000160: b26f d787 9422 ab3f 3e4e 9962 9039 b1bf
00000170: 6e70 2ce0 01bc b13f 7fef 14c0 96c7 b1bf
-0.061662141418589174 0.04020386936822032 0.04289675523215797 -0.014720316973221587 0.06692618875488843 -0.022333085552467536 -0.008320059618278204 0.06569399681885646
-0.009514819923843955 -0.06108891995435315 0.05564307446505008 0.0693449003229773 -0.00889868292109308 -0.03216220451583057 -0.0018512085072318284 -0.043892279125010335
-0.017074018850157628 0.03164279482630735 0.036591917234030984 -0.0519036018019498 0.001896888017348884 0.04038480662404135 0.00879968701236597 0.05687876776226401
0.04457239060727058 -0.008165061498346176 -0.03387837865962574 -0.043781220605076984 0.03416221582776542 -0.035049684340338345 0.04348600646014971 -0.02609973409556469
-0.024502485999101205 -0.008561391436785479 -0.05982974922978751 -0.0298911113147527 0.034334428717985165 0.03604692955797745 -0.018463581947565547 -0.06628705515021403
-0.03921064803570934 -0.03433750206214085 -0.0077107399564018755 0.05143877114543852 0.05299820097181342 -0.0672846070022439 0.06927501414287615 -0.06945173444267815

conv5.weight f8 [1, 48, 1, 1]
00000000: 7776 682d dbee ebbf 8439 ef0a 85c9 debf
00000010: b80b 7280 06aa ecbf 6400 ac40 ecef e5bf
00000020: cb01 6b71 2f3c eebf 4b73 3d13 204a d8bf
00000030: 6223 d887 890c debf 8be4 a906 31e2 c63f
00000040: c8b1 1aa6 0150 c43f 89a8 b1bd 3da8 dfbf
00000050: f312 3080 9277 debf bf8b 9041 1476 c33f
00000060: a38a 39b6 8598 c53f 4447 a217 4e00 ca3f
00000070: 233c 8e5f 3c3e dbbf 77a6 18a1 5e74 ca3f
00000080: 0cf5 5780 2cab d9bf e670 97ee 571b ce3f
00000090: 557d 5d07 bfcc dbbf fcee 7f73 1912 e2bf
000000a0: 5df0 647c 0fe4 e0bf dfb8 9922 1047 c63f
000000b0: 8a90 d879 fd84 e3bf f628 9a51 d877 c23f
000000c0: 5b2e 2a54 3e32 bc3f 6120 607d b00f c73f
000000d0: 5c82 9364 d99c e1bf 31ad d8ca 6c07 eabf
000000e0: ccb2 0a13 b7d9 c13f d452 88a6 a9be e3bf
000000f0: db8c c923 1d7f c13f 1b10 dfef cdba bd3f
00000100: 818c ab5c 080a d8bf cb0d bd2b 08d1 dfbf
00000110: b510 4584 6eb0 e5bf f78d 1646 afc6 c43f
00000120: eafb ad23 149f dfbf ac74 26db ef83 d3bf
00000130: 5921 7ffb b51d dbbf 6b25 b24d 2c8c e2bf
00000140: ca59 a0c1 5d72 dabf 0f4d 3c5c 751a c13f
00000150: 0fa4 b09e a1c7 e2bf 83d1 bda6 8ce9 e7bf
00000160: 188e bfa1 43f6 d1bf 3ad7 e378 2280 c83f
00000170: 6043 7f06 73a1 be3f 2cad 4b64 3d24 d5bf
-0.8729072462917448 -0.48104978626079054 -0.8957550533963206 -0.6855374587176013 -0.9448468413539158 -0.3795242488757153 -0.46951521173519073 0.17877781701443882
0.15869160280762018 -0.4946436264496091 -0.47604811209048065 0.15204098893545212 0.168717111565532 0.20313430932997723 -0.42567357379533827 0.20667631975202358
-0.4010726216655065 0.2352094569204219 -0.4343717166829795 -0.5647094016889862 -0.5278394155097988 0.17404367150761055 -0.6099841480068033 0.14428237900239765
0.1101416545372386 0.1801663028893499 -0.5503966297511158 -0.8134063684314353 0.13945663862013757 -0.6170242550457155 0.13669170615603474 0.11613165956720232
-0.37561234521690073 -0.4971332957395275 -0.677787073459078 0.16231337473173799 -0.4940843914445724 -0.3049277916087003 -0.4236884075185308 -0.5796109693048214
-0.41323036106896593 0.13361994746865277 -0.5868690585531356 -0.7472594505948539 -0.28065577312210754 0.19141035940963907 0.11965102108594072 -0.330336902565892

conv5.bias f8 [1]
00000000: af5e ae59 1057 e8bf
-0.7606279136261572

bn1.running_mean f8 [16]
00000000: 063a 1495 8b25 d23f bbfa 1605 1fb9 d73f
00000010: f7cc 2313 925c c9bf bf36 16e1 d25b c4bf
00000020: 601c 2af2 4f76 d7bf 9ac9 28da ca23 d23f
00000030: f1fc b6fc 3ec0 d03f 9df1 e97e 71f1 933f
00000040: 500b 8aff 3348 913f f66a ab23 4c2b d6bf
00000050: 36d1 4bdf 8cad a63f 47cf 562f 8e73 d3bf
00000060: 515a d9e2 cc97 c43f 2012 3494 ee71 ccbf
00000070: 6d35 f00a e4ba d33f be03 4f04 5a33 993f
0.2835415798043929 0.37067389962241365 -0.19813753065645986 -0.15905223837437707 -0.3665962090385104 0.28343459419843386 0.26173376731089976 0.019475720759588467
0.016876995536687034 -0.3463926647506662 0.04429283357413498 -0.3039279424949552 0.16088257862675673 -0.22222692715162484 0.30828190868563504 0.02460995341585081

bn1.running_var f8 [16]
00000000: dc6a 6aae 1d9a 6b3f 11a0 c18f b9c9 733f
00000010: 4ce6 e397 e014 653f 8360 d963 9a4a 623f
00000020: 1160 18bc 15b3 773f d65f cb2b 2e01 693f
00000030: 9cc8 8e74 f147 593f 7058 e721 f676 683f
00000040: d557 c47e ec0f 743f 4e76 8c0a f446 773f
00000050: 5c47 211e 5c91 513f ae88 d9cd 8556 703f
00000060: 2813 a8c6 4e78 623f 7fe9 729b fbcf 5c3f
00000070: b54c 5927 69ea 733f 7d94 8ec1 5f12 753f
0.003369386645613799 0.004831051683233071 0.002573431643324386 0.0022328391485580425 0.0057860230458786225 0.003052320649981492 0.0015430314981413123 0.0029864127420565142
0.004897998627958662 0.005682900701484762 0.0010722541415088748 0.003988764450328626 0.0022546328157225966 0.001758571348359966 0.004862223393121192 0.005144475981898042
