model/riesznet-mnist.pth (torch, 180934 bytes, 32 tensors)

conv1.weight f8 [12, 5, 1, 1]
000000 5e 19 d8 3a 71 a1 b7 3f 7a a7 7d 83 21 d4 94 3f
       0.09230716406464043 0.020340465212405935
000010 17 31 e1 9a 7b 2a e3 bf 23 e4 8f 5d d1 5d d2 3f
       -0.5989358925812976 0.28697618615075465
000020 7f 1a a1 dc ad fd ac 3f 2b df a3 b3 fd d3 b6 3f
       0.05662291830281151 0.08917222629304138
000030 4b 95 1f 6e a9 60 b2 bf 7d 5e ea 2c b8 8f b9 bf
       -0.07178744257506257 -0.09984923454828194
000040 3a 9f 67 22 58 59 d5 3f d2 b7 9c 36 e3 17 de bf
       0.33357814178315304 -0.470207980472762
000050 de 45 ed cb 60 77 d0 bf 7d c3 05 c8 fd 81 db bf
       -0.25728626169902025 -0.42980904134224557
000060 a6 78 b7 33 59 ec d4 bf cf c1 f0 66 5b 0d c5 3f
       -0.326925564293456 0.16447012449635998
000070 08 b9 ca 3b eb 65 e0 3f b1 b8 35 20 08 66 d2 bf
       0.5124412696657439 -0.2874775232838927
000080 98 a7 24 fd 6b 03 df bf b1 0e 76 88 ee 55 b3 bf
       -0.48458385201467413 -0.07552996474810915
000090 c2 51 33 1c d1 e7 b5 3f 3b a9 81 3b e9 64 d7 bf
       0.08556849421012827 -0.36553412257366674
0000a0 74 ba 22 27 1c 22 d2 3f 73 b2 07 b3 00 66 da bf
       0.2833319074806362 -0.4124757526722426
0000b0 da 90 69 d8 b1 d3 da 3f 91 18 97 58 ce d4 b0 bf
       0.41917081960697333 -0.06574716246459135
0000c0 9b 15 a2 f8 d9 48 c2 3f 94 3a 6e c0 64 32 d4 3f
       0.14284824981966157 0.3155757788853546
0000d0 c3 5b 1a ff a7 02 d6 bf 3a 08 f9 2f b7 d4 d5 3f
       -0.34391212379835795 0.3411081284031102
0000e0 24 0b 5e 2b 8f bd dc bf f8 c0 52 fb d1 85 c3 3f
       -0.44906977877706056 0.15252136966365248
0000f0 20 b7 18 f0 ee c5 bc 3f 45 0a a9 cd 3b e7 94 bf
       0.11239522325260198 -0.02041333620787557
000100 6e f2 93 c8 75 03 dc 3f 88 83 c4 47 46 4f b1 3f
       0.4377111872452478 0.06761588337077573
000110 2e 2e ad f7 3b 8d b3 bf 52 7d 85 66 58 57 e0 bf
       -0.07637381359852988 -0.5106622698184913
000120 eb 72 59 5e 7d e0 d2 3f 41 79 89 30 d7 32 ab 3f
       0.2949517651921229 0.05312225787632708
000130 4d 5e e1 ec 6d 72 ce bf 8b 02 53 16 8d 8e b8 bf
       -0.2378671080248175 -0.09592515749955959
000140 6c f4 1a 46 92 04 c9 bf 70 c4 60 c1 1f 68 dc 3f
       -0.19545200751409497 0.44385522732324656
000150 8f 31 4b eb a8 41 d3 3f 58 93 f2 f8 91 62 cc bf
       0.3008825586118968 -0.2217581239284765
000160 be f0 b7 5a d2 50 cf 3f 04 65 06 76 e3 5f cf 3f
       0.24465398244490716 0.24511378539026663
000170 bd 09 05 22 8a ed d8 3f dc b1 66 a5 22 7a d8 bf
       0.38949826547846184 -0.38245454933601564
000180 46 dc c5 d9 27 03 d2 bf e4 55 d2 88 ea af b7 3f
       -0.28144260661014575 0.09252801742908151
000190 68 6d 79 7b f4 a5 c9 bf 4a 9d 21 12 da 60 95 3f
       -0.20037704495448883 0.020877272946021187
0001a0 10 c4 d7 cf b3 f3 c6 3f a1 fc f0 8a 9a 8a d3 3f
       0.1793122067315669 0.3053346974229019
0001b0 c7 dd 42 70 55 d4 ae bf 9b b3 0e 82 7c 55 b5 bf
       -0.06021372790695128 -0.08333566832761934
0001c0 e7 8f 71 ab 90 d3 d3 3f 70 37 e8 2d 06 17 8f bf
       0.30978790991343746 -0.015180633808110605
0001d0 75 17 45 57 e6 f2 d5 bf 85 a9 67 30 7f 9e d9 bf
       -0.34295042536211123 -0.4002988789276503

conv1.bias f8 [12]
000000 19 d8 94 ff 3f 41 4e bf 0d 04 06 00 01 40 a6 bf
       -0.0009233057491318002 -0.04345706105505807
000010 7f 41 ff 7f d9 e4 d8 bf 64 76 ff 3f 22 1b d2 bf
       -0.38896787166324737 -0.2829061150531287
000020 fa e7 00 40 7d 97 c0 bf df 40 00 20 70 4e cf bf
       -0.12962308526203953 -0.24458123743580182
000030 5b c6 fd ff d8 d8 b8 3f 7f 25 00 00 08 ba ab 3f
       0.09705883264339248 0.05415368080145821
000040 06 6e 00 c0 a5 9e d8 bf 37 04 00 80 cb 28 d3 bf
       -0.3846830725685496 -0.29936492443090706
000050 97 e9 fa ff b7 c4 97 bf d6 8e ff ff 1f 30 ae bf
       -0.023211359976565395 -0.058960914611615386

conv2.weight f8 [16, 60, 1, 1]
000000 ff b8 ed 2d 0c 20 cf 3f b5 30 fa 0e d8 40 b7 3f
       0.2431655143986475 0.09083319059044721
000010 68 04 70 14 b3 f5 a7 3f bf fc b9 3f 8a 73 af bf
       0.046796413655109614 -0.061428375510325754
000020 f9 b1 84 7b 68 70 c0 3f 2b c5 41 0c e9 cf b5 3f
       0.1284304240338228 0.08520371007195553
000030 2b 8b c3 08 ae 10 b0 3f 8b 7a 17 40 f7 78 a9 3f
       0.06275451387368196 0.04975102097863723
000040 b0 fc 17 54 92 bb 91 bf 00 bd c4 07 8c e0 7f 3f
       -0.01731709135310372 0.007782504075563468
000050 dc ae 62 e5 59 ce b5 bf 0b b8 4b 98 36 03 c8 bf
       -0.08517991876822911 -0.18759806095425832
000060 f6 f3 b9 6c d9 df 8a 3f 4d 05 3b 82 bc dc 85 bf
       0.013122271185460815 -0.010674927448578809
000070 96 69 f7 4d a3 d5 9c 3f 78 6c b6 76 41 c9 b8 3f
       0.02815871394509769 0.09682091854340225
000080 65 02 71 f6 02 07 a8 bf 61 cb 47 44 bc cd c7 bf
       -0.0469284940559234 -0.18596604665762143
000090 6e 7f 8f ff 5a f7 a8 3f 02 ba e5 95 84 3d a1 bf
       0.04876217240939594 -0.03367246942331194
0000a0 cb af 82 32 f1 b5 a2 bf 20 48 89 e3 bd 5c b4 3f
       -0.0365443586500472 0.07954012684902567
0000b0 b2 df 37 94 86 7b 82 3f 2d 17 e4 c2 b1 75 a8 3f
       0.00902466907335495 0.04777293685951487
0000c0 37 2c 9b 33 f4 a9 cd 3f 8f 3d 50 cb 54 7d b4 3f
       0.23174908180075857 0.08003740276057257
0000d0 20 65 c4 f3 59 30 ce bf d5 c9 71 fc 65 2a c3 bf
       -0.2358505668897033 -0.14973139597311894
0000e0 da 9e 79 3c a0 38 80 3f e1 59 25 6a d0 25 ac 3f
       0.007920505376389487 0.05497599883772231
0000f0 99 e0 98 99 fc b9 c1 3f 32 b9 d2 8b a8 14 ab 3f
       0.138488364218351 0.05289198595834178
000100 c9 39 b2 ea 17 a5 91 bf ce 94 91 d5 d2 e1 ac bf
       -0.017231343936652075 -0.05641039711989891
000110 47 b1 95 02 07 5e a7 3f 7c 6a 68 83 38 a6 cd bf
       0.04563924700309712 -0.231635154880525
000120 22 28 d3 3f 69 02 d3 bf 71 16 2c 75 45 58 9c 3f
       -0.2970221637048117 0.027680478359818076
000130 de 09 e3 15 47 46 ad 3f ab 08 12 3c 71 fd a8 bf
       0.05717680113004396 -0.04880861147195622
000140 61 e8 62 1a de 17 80 bf d4 80 34 b1 05 07 c2 3f
       -0.007858023815391304 0.14083930161087344
000150 06 d5 8a 00 8d d0 96 bf db a4 62 ad 3d 8c bd bf
       -0.022279933126545103 -0.11542115672149882
000160 4d 57 45 ca 4a e1 c2 3f a1 56 32 b1 2a d9 bd 3f
       0.14750037075526237 0.1165949518784495
000170 be c2 d9 4d 4e 44 a0 3f d9 f5 da 52 55 2f a1 3f
       0.03177113247227713 0.03356424938599973
000180 c4 3a e3 85 a5 68 c1 bf b9 d0 fc 4d 36 09 9a 3f
       -0.13600606000405524 0.025425766477568532
000190 49 88 cb 68 43 a8 b9 3f 61 37 67 c5 79 4c b6 3f
       0.1002237444731985 0.08710442609227932
0001a0 cc f0 c7 93 8b fc b3 bf 52 36 ff 15 12 c7 a6 bf
       -0.07807228429732332 -0.044487538514300554
0001b0 16 39 b6 49 cf 35 d9 bf 6e 19 a3 10 0e 05 be bf
       -0.39390928457659535 -0.11726463228396763
0001c0 d5 e0 3a 30 c5 1c 90 3f 1f 12 98 24 bc 61 b4 3f
       0.015734749859547776 0.07961631673249102
0001d0 4f f7 d6 5e 94 39 c2 bf 7e 18 2f 9d ba c5 c9 3f
       -0.1423821890911605 0.20134670901297008
0001e0 d9 3a da d5 c6 44 c6 bf 61 5e 90 77 f9 a1 c3 3f
       -0.17397389833464308 0.1533805688675214
0001f0 24 cc dd 94 95 30 ce bf c8 a3 1e c7 96 ad b5 3f
       -0.23585767525546075 0.0846800075656936
000200 8a 2f 72 c9 68 f4 c8 3f 7f bb 31 7d 9c b5 c5 3f
       0.1949587806342346 0.16960483658791856
000210 3f 88 0b d3 ca e0 a7 3f bd e8 2c 84 e9 72 a5 bf
       0.04663690401299946 -0.041892335304923624
000220 dd ba 58 dd 43 86 c0 3f 53 5a d8 70 ab 11 be 3f
       0.1290974455636932 0.11745711808212293
000230 05 c3 96 2b b1 40 be 3f fb 2e 85 42 8c 24 9c bf
       0.11817462267095998 -0.027483169136117685
000240 83 e1 82 37 f8 fc b7 bf 9a 92 b8 bb 20 aa b5 3f
       -0.09370375972037519 0.08462719519645603
000250 52 a6 89 97 d1 af a7 3f b7 d7 13 c6 1c 99 76 bf
       0.046263265369657205 -0.005517113110945652
000260 b8 23 a7 c8 75 87 a0 3f f5 ca 61 cd 84 88 a7 bf
       0.03228347849250873 -0.04596343047241717
000270 6e 5c dd 78 4e e3 c3 bf 39 36 93 49 eb 91 c0 3f
       -0.15537434484096785 0.12945309727222012
000280 7f 22 48 0a 9c 5f ae 3f bd c4 7f 53 9f 74 a8 3f
       0.059323192839717535 0.047764758055458746
000290 e4 37 26 89 7a 3a c1 bf 65 ae 84 24 41 53 be 3f
       -0.13459712692969028 0.11845786229667395
0002a0 37 a5 7f bd ae 24 ce 3f e4 44 52 c0 d8 a5 3d bf
       0.2354944634710507 -0.00045239011553473
0002b0 3c 0e 54 85 81 e2 c1 bf ee d6 75 84 bd 0c b9 bf
       -0.13972491274044951 -0.09785065158743197
0002c0 de 38 88 5d ed 9f 84 3f 45 06 ac b4 bc 76 52 3f
       0.010070661942361555 0.0011269419507588124
0002d0 6e 8a 49 28 af 0b af bf d1 a6 38 32 d4 fc c6 bf
       -0.06063601843631693 -0.17959072544299784
0002e0 8a e7 fb d9 4f af c6 bf f2 6a 9e 99 fb 95 95 bf
       -0.17722509521246038 -0.021079951525829928
0002f0 47 7f 7e f5 cf 4a c8 bf cf fa 31 67 e8 48 d4 bf
       -0.18978309142129943 -0.3169499404684019
000300 6c a6 31 37 07 9f ca bf 49 5a 76 19 72 b0 c9 bf
       -0.20797815508858564 -0.20069719546582324
000310 0d 33 a9 58 81 c4 a1 3f 97 24 bf d1 4d 53 a9 3f
       0.03470234114920432 0.049463683942641605
000320 b7 58 6e b6 32 da c3 3f 90 45 92 5a 6e 69 b3 3f
       0.15509637744680102 0.07582750045027908
000330 d6 e8 84 9f 44 95 b2 3f 47 66 5a 71 59 af d5 3f
       0.07259014982711007 0.3388274771656125
000340 39 b1 e3 7e de d2 c1 3f c6 95 26 2a 7c 12 b1 3f
       0.1392477149560223 0.06668830899305708
000350 92 c9 1c 85 b8 6b ab bf 66 30 56 e6 4d 9c 9a 3f
       -0.053556219338491876 0.02598687857020856
000360 c9 91 9c c7 6d a5 72 3f f2 38 47 e4 43 5a b2 3f
       0.004552296473580638 0.07168983767698814
000370 17 a2 40 5b 25 44 a1 3f 85 8d 94 7d 1d f5 b3 bf
       0.03372303713723939 -0.07795891109394944
000380 29 14 70 88 c3 05 ae bf fc cc 05 2e 7f c0 a0 3f
       -0.058637724308973134 0.032718634002685903
000390 ff e5 b6 cb c8 e8 a4 3f 79 55 d3 20 6b a4 a4 3f
       0.04083850371121044 0.0403169133730143
0003a0 e1 59 f3 11 e4 49 bb bf d1 25 f7 fd 38 89 b3 bf
       -0.10659623564001876 -0.07631260109260231
0003b0 48 35 19 2b 03 17 c1 3f 99 d8 50 a1 c3 4b a4 3f
       0.13351478199403233 0.03964053482234071
0003c0 ed 70 ae 5b 94 5f 71 bf 8c fa 95 c1 9d 0e b2 3f
       -0.004241542362162881 0.0705355260488238
0003d0 80 0d 96 c8 c0 ab 80 bf a5 b4 8c 56 36 40 ab 3f
       -0.008140092965510659 0.05322427565111213
0003e0 02 25 8c 80 07 25 ba bf a7 bd 5e b8 8e 09 ba 3f
       -0.10212752235760905 0.10170833588812532
0003f0 f5 01 d3 7d 72 b5 b3 bf ab b6 4b 01 2b 76 a6 bf
       -0.07698741504555769 -0.04387030020539603
000400 2c 9b db 7c 57 92 9c bf c5 22 72 bb 83 ec c7 bf
       -0.027901999469487723 -0.18690535214070372
000410 75 6f e9 c7 31 e9 8c bf 21 3b 5e ba c8 b2 c4 bf
       -0.014116658128095353 -0.16170605754856474
000420 04 4a aa 94 f3 fc b5 bf 1d e0 f2 bd 28 e7 bf bf
       -0.08589098338624274 -0.1246209586851141
000430 eb cd 94 b4 34 9a bf bf 0a ff 3b fb 58 16 9d 3f
       -0.12344674500200596 0.028405561765793265
000440 18 17 2a f6 e8 a3 93 bf 17 e9 7b ba b1 4c a2 3f
       -0.019179954552348638 0.03574138070503546
000450 f6 80 ad b5 41 60 c2 bf 35 72 25 3e d5 6f b9 3f
       -0.1435625207041153 0.09936268584483161
000460 4c 31 62 56 2e 58 bf bf 39 c1 c0 a7 43 86 a8 bf
       -0.12243928536390064 -0.047899355151800944
000470 75 a6 26 f7 39 c4 ad bf f8 76 26 df d2 34 c5 bf
       -0.058137713832661676 -0.16567455192573965
000480 a6 00 b8 17 13 81 94 bf dc c7 15 c3 b1 38 c8 bf
       -0.02002363044994184 -0.18923017526282038
000490 a8 44 48 13 cc 0c a4 bf 49 c5 b9 3a 62 a0 a2 bf
       -0.03916013465289697 -0.03637988058916137
0004a0 a6 1c 87 d2 ac ab c7 bf b6 9d 88 e0 3d ba b8 bf
       -0.1849266078918152 -0.09659182292727206
0004b0 9f ad d0 9a af 48 94 3f a8 ec 95 8e e0 69 ba bf
       0.019808524917761635 -0.10317805749029907
0004c0 28 2d 62 ad 0e 7d ba bf 46 2c 1e 35 c4 c6 c8 bf
       -0.10347072346683162 -0.19356587022443444
0004d0 99 94 6e c5 47 5c 3b 3f a4 79 ec 99 71 4e b3 bf
       0.0004174876425458523 -0.075415706709896
0004e0 ea 42 92 b0 f9 6a 85 bf 1d b4 0b 38 7e 9e cb 3f
       -0.010457945538548914 0.21577432381255415
0004f0 e4 30 f5 3c 57 84 db 3f 94 e0 b1 e6 ec ef b5 3f
       0.4299524398127359 0.08569222099493096
000500 12 84 7c eb 3c 79 c0 3f c8 c9 a1 25 d9 09 c5 bf
       0.12869988916739367 -0.16436304414271619
000510 e0 ac 8f af 35 26 a2 bf df e0 9c 3b 76 e6 c1 bf
       -0.035447766953291326 -0.1398456374242931
000520 a0 5d d4 48 ed 3b c8 3f 09 19 36 90 3c 13 cd bf
       0.18932882362490222 -0.22714955369537673
000530 f3 88 b2 19 83 3a a5 3f bc ab dc 3c a4 4f a5 3f
       0.04146203697861663 0.04162324183410912
000540 31 4b 68 1d c9 5e c5 bf 24 07 6d 18 5b 8b b2 3f
       -0.1669551271048362 0.0724389013894578
000550 f2 f9 d1 76 b5 cb 91 bf 7f d0 47 31 25 81 ba bf
       -0.017378650071345043 -0.10353310063493558
000560 6e 40 55 75 45 ce 92 bf 90 47 25 73 8a 27 a5 bf
       -0.01836498764652144 -0.041317297511923035
000570 18 72 cc b0 8a 3d b2 3f 20 b1 95 f2 51 fa b6 bf
       0.07125155273792705 -0.08975708172301156
000580 60 4d 14 27 f6 84 c4 3f 4b 00 3f d2 f8 86 d4 bf
       0.16030766399544927 -0.3207380345520547
000590 b7 bb f5 cf 05 ce c6 3f a2 32 6d 2b c0 03 c8 bf
       0.17816231397907042 -0.18761446114003372
0005a0 7e c4 4d f7 fb b0 c4 3f 03 f1 5e c1 49 5b a6 bf
       0.16165113044147356 -0.04366522298320954
0005b0 fc e2 5b d8 18 18 bc bf 9a 4f fd cb 62 79 85 3f
       -0.10974269182396407 0.010485431528344514
0005c0 29 31 14 4b 8b d7 b5 3f 4c 36 36 6d 07 d6 a4 bf
       0.0853201921747241 -0.0406954117598671
0005d0 c8 93 f5 69 d0 4a 9a 3f 0c c8 b2 b6 a0 a4 76 bf
       0.025676018206826773 -0.005528095042949498
0005e0 9f a9 53 e1 a5 e8 a6 bf 56 1e 47 4e a2 da ae 3f
       -0.04474371314593672 0.06026179509677536
0005f0 c8 18 da ee ef 19 ae bf e1 64 ca 66 e8 bc c7 bf
       -0.05879163542435745 -0.18545250910827973
000600 d8 18 bf 7a 13 e0 8b 3f a6 1b 26 2c 18 f9 c5 3f
       0.013610984977173876 0.1716642585344889
000610 fd c5 df 03 56 61 a2 bf fa 40 6b 89 43 70 b9 3f
       -0.035898864720262914 0.09936925988154491
000620 43 85 32 d0 76 89 c7 bf c8 7a 80 05 60 bd b6 bf
       -0.1838825718487361 -0.08882713445971568
000630 3b a0 ab 01 68 5c d0 bf ad dd 57 f2 e9 7e a9 bf
       -0.2556400314629205 -0.04979640086451851
000640 45 eb b6 a6 ea a7 be 3f 83 2b 54 66 79 5c aa bf
       0.11974970407656567 -0.05148677229052281
000650 4b a6 77 77 36 5c c2 bf 96 98 1c e7 d5 c9 7a 3f
       -0.14343911012047025 0.006540141637549143
000660 5b 55 5f f9 7d b1 c0 3f be 7c a6 b7 40 10 c0 bf
       0.13041662861238987 -0.12549599616338541
000670 44 c9 bc 3e 78 11 ca 3f 2b 71 84 dc 6b 3c a7 bf
       0.203658133157271 -0.04538285319196896
000680 7a 63 dc c4 49 b6 6a 3f fa dd bb 09 bc 52 c0 bf
       0.003260749893240375 -0.1275248572853654
000690 1e 98 28 01 b7 55 a0 3f 7e 14 8f 6a fb c5 c4 bf
       0.03190395249502863 -0.1622919340426598
0006a0 30 bc 41 b1 68 6e c8 bf 69 ed f3 fe 18 6e 97 3f
       -0.1908694139014826 0.02288092666729594
0006b0 9b 09 39 77 37 1d d0 bf 8c 01 f1 ba f5 46 b0 bf
       -0.25178324358798826 -0.06358276189803841
0006c0 f6 3d 77 56 b9 72 c9 bf 18 21 7b 3a d7 02 d1 bf
       -0.1988135978885876 -0.26579838477165785
0006d0 a1 d6 bf 81 d2 a9 a6 bf a9 a3 c4 4e 16 d8 c0 3f
       -0.04426439126829718 0.13159445615863533
0006e0 3c 99 bc 78 10 3c 8f bf 51 fc 6a 30 cd 81 bb 3f
       -0.01525128239115913 0.1074493640144152
0006f0 8b 60 30 4e 7a b4 d4 3f 70 05 bd 53 75 99 b5 bf
       0.32351548801080615 -0.08437283796685846
000700 7b 59 10 2a c3 ac b7 3f f8 9a 4b 90 cb 55 ab 3f
       0.09247989441823805 0.053388940204788626
000710 f0 0b 31 b3 7f f8 cd 3f 41 59 05 8f e3 98 a0 bf
       0.23414608239735868 -0.03241644974575531
000720 a7 d7 70 13 5e 97 b2 bf 24 81 f5 38 5f 05 aa bf
       -0.07262218451145817 -0.050822234824183604
000730 b0 8c 31 49 b2 6c b0 3f f0 fe 87 da 92 87 a4 bf
       0.06415857588722207 -0.040096844841171264
000740 a3 61 de 0e bf 49 97 bf be d7 bb 8f ca 2c b5 bf
       -0.022742257387649577 -0.08271471032261865
000750 d3 54 6b f9 14 c9 c6 bf fb fb 5d 07 27 4d c6 3f
       -0.17801153353381113 0.17422950610850294
000760 df cc 96 b4 fb 9b b8 bf 98 0d 0f 45 48 1f c0 bf
       -0.09613011511719403 -0.1259546601487329
000770 44 b9 47 5f 99 8a a9 3f 41 ef 91 69 13 36 a8 3f
       0.04988555229270955 0.047287565838785024
000780 7b 40 70 fc c7 be b5 3f 9a 21 99 46 c9 22 ba 3f
       0.08494234002159999 0.10209329579914198
000790 4b 2b 99 ea 56 70 96 3f e4 4b 2a 62 d4 77 a4 3f
       0.02191291624903195 0.03997672746950068
0007a0 13 9d ab 1f 9f 79 b7 3f 8e c9 ae c9 30 1e b2 3f
       0.09169954798891337 0.07077317165275174
0007b0 f4 13 04 f2 a1 76 94 3f 4c dd 0c 25 1c 75 94 bf
       0.019983797451477117 -0.019977988969200042
0007c0 01 36 6a 10 f8 66 b7 bf dd 50 61 4f ab 6d 77 3f
       -0.0914149322581679 0.005719823055262388
0007d0 25 68 2d ab f4 22 76 3f 68 aa c0 78 74 bd d2 bf
       0.00540443013854922 -0.2928134135460483
0007e0 8d d5 c9 51 dd c5 ac 3f 50 67 76 b2 88 73 bb bf
       0.05619708655732856 -0.10723165852541894
0007f0 7e c3 4b dd 16 57 84 3f 4f 71 85 47 6d b7 a5 3f
       0.00993173468438768 0.04241506097852953

conv2.bias f8 [16]
000000 81 34 e3 02 c9 8d aa 3f 05 41 65 fc a1 36 8f bf
       0.051862985231857735 -0.0152409224653245
000010 bd 91 ff 7c c7 1a a7 bf 49 55 5c 7f 36 1a bd bf
       -0.045126184471687016 -0.11368122681991112
000020 91 02 80 02 5f ba 9e 3f 3f 5e 0b 7f b8 02 b4 bf
       0.030007824447241097 -0.07816651441259469
000030 0f 9a f8 fe bd 04 ad 3f a5 fe ec be b0 11 bf bf
       0.056676804899599025 -0.12136368428491069
000040 e7 47 d5 40 9d ca b1 3f a9 0b cf fb eb 2b af 3f
       0.06949789841499375 0.06088197182500405
000050 2f 49 24 ff 6c aa a9 bf f2 be a7 00 65 9b b2 bf
       -0.05012837042353834 -0.0726836325263738
000060 0f 68 27 fd 28 16 a2 3f 20 43 8d 40 ba 6c b1 3f
       0.03532531824357942 0.06806530071231665
000070 aa 60 42 ff 1d 45 7f bf fe d2 80 7e a4 cc b8 bf
       -0.007634274650762199 -0.09687259758431918

conv3.weight f8 [24, 80, 1, 1]
000000 ef 6c 74 20 36 ac c3 3f 30 57 65 60 31 47 a8 bf
       0.15369297585207373 -0.047418158547471
000010 96 19 11 64 70 6c 96 bf 8e 7a f6 a8 c9 69 c3 bf
       -0.02189803705939538 -0.15166588544976317
000020 3b 69 6f 97 ff 80 ad bf 20 fc 02 2a 94 3a d6 3f
       -0.05762480472158634 0.34732536413861403
000030 b3 06 2c 42 9d 2a a8 bf 8a a9 c1 a0 d3 59 c7 3f
       -0.04720012123835939 0.1824287924712958
000040 26 06 79 aa 89 ec 8f bf 46 22 db e1 d0 08 86 bf
       -0.015587878718295544 -0.01075900258310115
000050 55 19 5f e2 0e d0 c1 bf bd b7 eb 50 60 db a6 bf
       -0.13916193059248863 -0.04464245784571073
000060 3b 41 d7 f6 b9 14 a0 3f 5e af a3 b0 34 35 b3 bf
       0.031408130056322446 -0.07503060638890477
000070 9e ba 71 3c 86 6f b3 3f c2 ff 2e 81 1c d3 b1 bf
       0.07592047668161192 -0.06962755350013963
000080 ae 6c dd 80 ee 6a bc 3f cb 0c 67 e8 5c 06 94 bf
       0.11100664754978837 -0.019555522618031767
000090 58 10 c9 27 58 0e a8 bf 61 90 66 19 32 f6 90 3f
       -0.04698443875943842 0.016564162063915314
0000a0 f2 9a 04 96 f6 75 c9 3f 8b c1 4b 09 77 37 92 bf
       0.1989124519834245 -0.017789707128885317
0000b0 d5 a4 54 ff 07 25 bf bf 4e 19 62 7f 7f b4 c0 3f
       -0.12165880187662322 0.1305083629596972
0000c0 8d 60 0d 82 6d 86 b4 bf 43 18 bd 37 fc c7 c5 bf
       -0.08017620492080564 -0.17016556474317399
0000d0 64 25 9f db 74 ac 91 3f b0 45 04 68 33 85 a9 bf
       0.01725943174804935 -0.04984436650023427
0000e0 f7 0c 00 cc 85 4d 9e bf 4a cf bf 9a 32 a4 bb 3f
       -0.029592600418266248 0.10797420766885782
0000f0 34 d7 9d 83 35 f8 a7 bf df 14 a8 1a 4a 25 c0 bf
       -0.04681555968902132 -0.12613798429098375
000100 66 dc f8 dc 01 4a c2 3f 5d a9 6a c2 93 a5 c9 3f
       0.14288352288869816 0.20036551468849498
000110 59 78 4d a4 7d fe b3 bf 4d fe 24 c5 5c a1 c7 3f
       -0.07810197125715614 0.1846118891353278
000120 c2 1f 5e b6 98 3b 98 3f 34 1e 95 83 1f ad a4 3f
       0.023664842730368958 0.040383324444118435
000130 c4 97 2d 47 31 d5 a5 3f 07 8a 71 ed 4f df b3 3f
       0.04264215463517432 0.07762622401200057
000140 53 80 1a c5 d1 5c b3 3f 54 09 ec f4 d3 0a 97 bf
       0.07563506185624762 -0.022502242874005887
000150 f3 ab 8e cf 17 c4 c4 3f 8e 64 78 59 bc 85 be bf
       0.1622342837775644 -0.11922814544995416
000160 60 fb 11 b8 36 90 ba 3f 02 15 2c 99 50 28 7c 3f
       0.10376302713301078 0.006874384724828932
000170 f4 53 92 0e a8 7a ac 3f 25 7d 5b e5 ab 31 be bf
       0.05562329461933038 -0.11794542645974511
000180 4a 66 68 e2 f1 43 c1 bf d9 c6 77 5d b5 20 9a bf
       -0.13488601260250938 -0.02551539786322263
000190 d6 8b 7b 08 53 bf cc 3f c2 74 1c 56 b0 5b bb 3f
       0.2245887557429273 0.10686781027148398
0001a0 e4 a9 78 0d 22 05 c7 bf 6c 03 0d 51 ba db 9b bf
       -0.17984414727955234 -0.02720538253493336
0001b0 d7 9e dc 05 62 46 8a bf 3f 35 18 85 1b fe ad bf
       -0.01282955723179617 -0.05857931136788829
0001c0 f8 5d 30 94 f5 63 4b 3f 40 e5 03 dc 73 4c c5 bf
       0.0008358906856100181 -0.16639564745836743
0001d0 14 51 32 8e ac c1 d1 bf 0d 9d 5d cb aa d1 ba 3f
       -0.2774459255827122 0.10476176705343594
0001e0 5f 58 ba 90 7f 16 ba 3f f1 7c 83 dd 73 12 b0 3f
       0.10190579684635413 0.0627815643124341
0001f0 80 c1 93 36 fe 42 b6 bf eb 7d e2 cf dc 29 b9 3f
       -0.08695973236513588 0.09829502177534948
000200 7b 5f 42 ad 28 86 bc 3f 0a 19 4a 75 8d 5d b0 3f
       0.11142210226023323 0.0639274989463027
000210 0b 28 57 4f 62 d0 b0 bf 34 f5 6c 63 7a bd a1 bf
       -0.06567968785307714 -0.03464872802440269
000220 e5 26 71 88 29 95 b7 3f 26 a4 5d 94 53 fa a2 bf
       0.09211978512862691 -0.0370660894976214
000230 ca 93 7e a8 91 b3 c0 3f 04 9f fb cd 32 7a bb bf
       0.1304800102926989 -0.10733335045699383
000240 18 9e 7a 45 4e e0 bb 3f 9e b8 2e c7 cb 11 b4 3f
       0.10889138408912691 0.07839654553274264
000250 11 fd f1 34 e2 32 b7 3f e9 5b 84 51 c7 47 a1 bf
       0.090620172430125 -0.033750752163704885
000260 a7 02 4e fd 2f 72 97 bf 08 78 c5 ef 89 29 ba 3f
       -0.022896528087133074 0.10219633201401745
000270 c2 15 e6 f4 b4 ac a2 bf 37 63 00 70 0d 8e ac bf
       -0.03647389878737385 -0.055771274492320826
000280 5c cb b5 97 de 3e 9e 3f 5b 85 e4 68 60 a5 b5 3f
       0.029536703118945837 0.08455469666343644
000290 d3 1f 3d 81 04 eb b1 3f 21 ef df da cc db c9 bf
       0.06999233393901187 -0.20202027022593774
0002a0 e0 7e 33 cb 9d 5a 82 bf 0b ee 72 ed 1c df d5 3f
       -0.008961899532038797 0.3417427367055274
0002b0 c0 0c ef 8e e9 2f a4 bf 35 82 ff 38 a9 d2 d0 3f
       -0.03942804212376805 0.2628577286359673
0002c0 61 61 0d 9e de 1f 81 3f 63 03 ac ac 78 cf c1 bf
       0.00836156768643609 -0.13914402419325275
0002d0 76 53 12 a7 20 a6 b3 3f 96 36 f2 9d e7 5c cd 3f
       0.07675365523239272 0.22939772808279163
0002e0 ab 1c 9d 04 fb b4 c4 3f 04 fd 45 46 8e 77 a5 bf
       0.16177308774260743 -0.041927763059897344
0002f0 89 13 8b f6 e7 85 c0 3f 92 7d 75 b3 f7 8a ae 3f
       0.12908649004216624 0.059653988510713366
000300 67 d4 2d 1a 4d 93 b3 3f 5d 7c e8 5e cf d5 9b 3f
       0.0764663876451138 0.027182808082326527
000310 de 45 64 00 ca 34 a6 3f 16 62 42 66 d7 cd c0 3f
       0.04337149863034616 0.13128178113107997
000320 92 a0 35 0b fa 52 cd 3f 98 82 82 4a 5a 4e b9 3f
       0.22909474894845921 0.09885181731307069
000330 76 50 14 33 89 0f a7 bf 9c a2 b8 07 c8 73 a6 bf
       -0.04504040478255515 -0.04385209173444091
000340 a7 05 cc 92 02 d1 a9 3f e4 7b 98 ae 86 f3 a8 3f
       0.05042274515109151 0.04873295670790137
000350 a2 ca 37 8f bc 33 d4 bf b5 b6 ee f2 f6 15 a7 3f
       -0.3156577490437177 0.04508945193752593
000360 25 b6 d4 6e a5 04 c3 bf 68 14 d9 83 a4 7b 8b bf
       -0.14857929145493745 -0.013419423364334729
000370 45 46 ec 1a c3 02 a8 bf 53 73 7d 23 c9 a8 ab bf
       -0.04689607337617167 -0.054022107679634467
000380 fe 81 05 37 c6 93 b1 3f 09 1f d6 2c f4 60 ca 3f
       0.06866110652254773 0.20608379544523128
000390 e9 0f 80 e3 53 67 b4 bf 39 95 22 30 9c c3 b7 3f
       -0.07970165542798181 0.09282852339909632
0003a0 0c 4b 7b ca 39 6c c0 bf 37 3b 30 92 55 25 a1 bf
       -0.12830278765485337 -0.03348796281362925
0003b0 b3 5f e3 fa 88 e2 85 3f 91 bf 64 3d 5b 39 a4 3f
       0.010685987621783832 0.03950009464676819
0003c0 8e 9e b2 52 cf 61 a8 bf 0a df f8 ce 09 47 b5 3f
       -0.04762122997754857 0.08311520865470015
0003d0 48 3a 27 72 e1 00 a9 3f 5e 27 d6 7f 02 f9 a0 bf
       0.048834843811722595 -0.03314979372505776
0003e0 cc b4 f2 69 42 8b a2 3f 60 02 ea 89 dc b1 ae 3f
       0.03621871512710015 0.05995072539827073
0003f0 7f 99 a6 b5 a4 93 9f 3f b8 56 c9 b5 bc 1f ca bf
       0.030836652361949653 -0.2040935409192366
000400 89 e1 0b 73 b8 7b bc 3f 3f 10 46 86 89 48 bb bf
       0.1112628250956559 -0.10657557991186282
000410 5e 5f 60 df 8d 46 b6 3f 4f 33 fc 3a dc 9b b8 3f
       0.08701407149817217 0.09612823906009037
000420 a8 b9 88 e8 9d 15 a2 bf 0d 94 f2 a1 e7 02 61 3f
       -0.035321173320301213 0.002076580436169545
000430 b8 f4 23 38 ef ce ae 3f 0b 15 8f 2c c9 13 73 3f
       0.06017253456409705 0.004657541118779261
000440 d1 03 fa f3 e1 8e c5 3f 15 8b 64 43 a5 24 b4 3f
       0.1684229317943662 0.07868416686373465
000450 a9 de 92 59 a5 31 c0 bf e6 b8 fe 1b 05 e4 b6 bf
       -0.12651507257191 -0.0894168084475698
000460 41 fd 80 62 98 ae b0 3f 78 af 03 f1 d2 2b c3 3f
       0.065164112137599 0.14977490204125465
000470 25 b6 7e 95 4f 57 b2 bf fb 1e 35 61 95 60 97 3f
       -0.0716447582223841 0.022829374368739313
000480 59 1f 06 fc 8e 8a c3 3f 85 1f 77 3a 66 5f c9 3f
       0.1526659708581473 0.19822385649444754
000490 58 09 a4 4e 1b c0 9a 3f 57 f7 fe 35 4a dc 80 bf
       0.026123453783847367 -0.008232669613672234
0004a0 ef 6a 89 33 c7 9e bb 3f 7d 69 f7 c7 1b 31 cc bf
       0.10789151199552881 -0.22024867309557897
0004b0 b2 0f a6 ef 9a 32 c3 bf 83 3f a8 05 f2 f0 c4 3f
       -0.14998184873195225 0.16360307003241922
0004c0 1c 1a 7e 39 14 ec b7 bf dd 6c fe 12 c5 82 bb bf
       -0.09344602969768129 -0.10746413911549575
0004d0 cd 4b 56 2f b8 36 ae 3f a0 bb f4 0b dd 02 97 3f
       0.05901122644276988 0.02247186074708518
0004e0 4f 6b 14 ad 77 9b b5 3f 6c 55 00 62 b6 d5 aa 3f
       0.08440349555568825 0.05241174646668409
0004f0 4a 6a 29 fd 99 27 ae 3f 9c fe f0 1e 96 23 85 bf
       0.05889588561395394 -0.0103217819397508
000500 33 5f 02 0d 54 08 87 bf 05 3b f9 7f af 78 a8 bf
       -0.011246353766452088 -0.04779575764825065
000510 30 db d2 3f 4c 70 a8 bf 03 fa f2 4b b0 82 bf bf
       -0.04773176459405304 -0.12308790067888968
000520 72 95 dc 43 b5 0d c0 3f 62 2b 48 46 c3 ff a9 3f
       0.12541833699757948 0.05077944024022575
000530 82 ed bf c5 26 b6 b0 3f 52 03 26 16 ff cb ac bf
       0.06527941062807055 -0.05624386926047599
000540 d6 41 2d 4a 7f 9e 8b bf bb b7 fe 4a d4 9f 94 bf
       -0.013485903216548783 -0.020140950276690477
000550 45 7d 62 4a ac 80 b6 bf 23 d3 22 d5 d9 ae b3 bf
       -0.08790089431794453 -0.07688676312939129
000560 50 58 f6 e1 38 0d b2 3f 22 49 85 6a ad 94 4a bf
       0.07051425472886419 -0.0008111807592661483
000570 58 db 05 37 b9 13 c5 bf e4 c8 3e da 6b 3d ab 3f
       -0.16466441332496617 0.05320298232199308
000580 b4 04 e7 c4 af 39 c8 3f 95 ea bc 8c 3f f8 c0 bf
       0.18926045526862867 -0.13257593509645874
000590 b1 9b a0 b3 e2 9f c1 3f 7f cd a0 62 48 d5 a7 3f
       0.13769181986682846 0.046549093284194314
0005a0 55 52 a8 b9 98 ec 88 bf 3b 74 66 63 0f 1e c3 bf
       -0.012170022168939068 -0.1493548617699235
0005b0 ed d4 14 67 cb 46 a9 3f 37 8f bf 46 ae d8 c1 bf
       0.04936824448888353 -0.13942507223611653
0005c0 eb 20 6a 5a 97 09 af 3f d6 43 40 5c b9 c0 c3 3f
       0.06062005022710245 0.15431897167630265
0005d0 73 76 2d 60 bb f0 b2 bf 48 2f 80 31 ba f7 bd 3f
       -0.07398577783666287 0.11706126888765056
0005e0 d0 c7 c1 78 0b 0f 95 3f 83 ff fb b5 fe b1 9f 3f
       0.020565203900737405 0.03095243440384322
0005f0 9a 61 6b f9 14 eb c6 bf 66 c3 c9 d4 a8 60 9a bf
       -0.17904913119015192 -0.025759351718480338
000600 e6 72 1a 6c 92 ff bc bf d8 8f d0 e6 54 a3 b5 3f
       -0.11327471865883929 0.0845234931480826
000610 9c 40 6b b7 83 a8 c2 3f 7e 2e ec ee a8 92 c1 bf
       0.14576765495303767 -0.13728820482389276
000620 e5 55 e9 de 6a 27 bb bf a8 60 7c 1a a8 60 b0 bf
       -0.106070212766404 -0.06397486349703974
000630 99 bc 00 f7 4e b1 61 3f 2f df c2 05 02 a3 96 3f
       0.0021597425730060624 0.022106200791966287
000640 33 e5 23 b9 34 7a b8 bf 98 90 c1 4c 55 e0 c0 bf
       -0.09561471481346899 -0.131846106031962
000650 dd 02 d5 6e 00 25 a0 bf 8a 9a 49 47 93 f3 b1 bf
       -0.03153230050020792 -0.07012291422288733
000660 c0 f5 27 d7 96 a3 a8 bf 0d be c2 fb 63 64 c3 bf
       -0.04812308670441778 -0.15150117676738298
000670 9e 86 df 05 17 4a 9c bf 48 a7 10 8b 9a 47 ad bf
       -0.027626380666225907 -0.0571869177586693
000680 3a 24 fb 26 99 b0 ad 3f 31 78 77 0c a4 40 a2 bf
       0.05798796273081348 -0.03564942028218388
000690 3a be 8a 61 87 bd bd 3f ce c2 74 83 19 e0 ba 3f
       0.1161732304706157 0.10498198947312717
0006a0 42 99 38 d1 b1 11 9e bf 1e 2f 6d 81 7b a5 ba bf
       -0.029364374537317113 -0.10408756170107522
0006b0 69 63 2d 84 5b 13 c1 3f 13 58 4e af c4 e9 b3 3f
       0.13340324357957492 0.0777857711785546
0006c0 b9 a8 03 17 11 35 d7 bf 95 70 a4 df 0d 39 a3 bf
       -0.3626139378308256 -0.03754466395386761
0006d0 12 2a 62 3c 41 49 af bf 3f d3 c2 17 dc a7 a7 3f
       -0.06110576498129573 0.04620254316379268
0006e0 0f 54 d5 ed b7 c2 80 bf ea 44 aa 9a 2d 47 ca bf
       -0.008183896012875306 -0.2052971844864609
0006f0 bf 10 0a 12 a2 ae ba 3f 49 5f 88 cd f3 8f b0 bf
       0.10422718944943464 -0.06469653861892967
000700 80 f6 24 bd b2 50 d3 3f 31 d9 f8 c0 86 71 a0 3f
       0.3018004271615169 0.032116137558136144
000710 88 a2 87 e5 99 6a ca bf 3e b3 39 0c 94 8e 9f bf
       -0.2063782091857045 -0.03081733059518687
000720 53 d7 60 65 95 1b b3 bf e0 be 28 11 b4 63 cd 3f
       -0.07463964200073052 0.22960520589685185
000730 29 b2 69 78 51 1a 92 3f 18 04 98 64 c6 d4 bf 3f
       0.017678521131914735 0.12434043842223763
000740 b8 5f 5d 55 a2 3a a3 bf 56 b0 2c a5 6e dc 91 3f
       -0.037556717796803196 0.017442444640593933
000750 50 c0 69 3e 14 4c c5 bf a5 27 a7 b2 11 18 d5 bf
       -0.16638424918665118 -0.32959406324936885
000760 ba 9d 61 3b b2 f5 b7 bf bc 2e 02 67 34 aa b1 3f
       -0.09359277677287184 0.06900336756569464
000770 74 2b ce 54 54 6a b9 3f 23 c6 b5 b3 af a2 8b bf
       0.09927870817607048 -0.013493893310371046
000780 10 5b 0c 62 6a 81 bd bf ad c0 88 c9 50 9e a1 bf
       -0.11525597471004922 -0.034410976983396104
000790 bb 4d 04 83 43 dc 73 bf bf 2e 7b 9d cf 7a be bf
       -0.0048487317256049 -0.11906144709353848
0007a0 7d 0d 97 b4 cc 55 c7 3f 30 fd cd 6e 92 de 67 3f
       0.18230589692948831 0.002913747789022779
0007b0 13 5f a7 55 45 93 99 3f 06 82 03 dd 2f ad 59 bf
       0.024975856163876275 -0.001567169896638744
0007c0 0b 04 37 24 1c 65 ad 3f 03 35 e7 5f e6 44 99 3f
       0.05741203252865298 0.024676894763435275
0007d0 a0 69 4d 1f f2 d1 a5 bf c3 3e 0b 87 4a 77 c0 bf
       -0.04261738426312722 -0.12864047616903038
0007e0 c2 6b 98 d9 c3 04 a6 3f b5 d5 a5 81 d6 03 b0 3f
       0.04300510436242845 0.06255856194714833
0007f0 a7 8a ea e0 ba 13 bc bf 8e 26 10 ba 58 3c 90 3f
       -0.10967605582349425 0.01585520396841971

conv3.bias f8 [24]
000000 18 50 70 80 3a 6e b2 bf 73 9f 70 ff 17 38 a0 3f
       -0.07199445377074232 0.031677961284286925
000010 7b 22 0a 83 31 f9 97 bf aa 37 8a 7d c7 1d 94 bf
       -0.023411534903547065 -0.01964484885916532
000020 e3 75 33 f1 db 7d 6c 3f 93 cb 7e 00 9d 03 ba 3f
       0.0034779830690314525 0.10161763441173681
000030 8c 75 dc 40 92 a4 b2 3f bb 31 84 01 2d b8 93 3f
       0.07282365878605485 0.01925726243739388
000040 aa 24 b4 01 ab 96 a3 3f 99 8e d3 80 86 20 a2 3f
       0.03825888057515077 0.03540439913356614
000050 f9 c3 dc 01 4b 17 ad 3f 05 e2 17 20 b7 88 b4 bf
       0.056818336465205684 -0.08021111043479585
000060 80 9b a7 fd d9 a4 9d 3f d9 c0 39 a2 cc 32 aa bf
       0.02894917116818929 -0.05116881828587489
000070 5a d0 db 3e 74 0e b0 3f a8 fd 51 83 9a d3 a8 bf
       0.0627205518210884 -0.048489407091433734
000080 0b da e2 41 e3 b5 b2 3f bc db 31 c0 e0 c8 b8 bf
       0.0730878864149888 -0.09681515400175916
000090 f1 b7 20 83 9f 7c ad bf f7 df ca 05 4a 7f 95 bf
       -0.057591423756420464 -0.020993382075829427
0000a0 07 9c 14 7f 4f be 99 bf c4 85 43 0a 3e 01 7e bf
       -0.025140039569262054 -0.007325403541672274
0000b0 a3 0c 7a fe 26 3c bb bf 27 6e f8 bf 2a 23 b7 3f
       -0.1063866015702382 0.09038035570886703

conv4.weight f8 [32, 120, 1, 1]
000000 90 c9 b3 6c 58 40 b1 3f 8e 8c c7 4c 6a 8b c1 3f
       0.0673880830179654 0.1370671152973028
000010 28 b6 69 b9 de 9a cc bf ae 10 61 dd a6 e9 aa 3f
       -0.2234762578331566 0.05256387188322385
000020 38 91 41 23 c3 ba b6 3f 30 9e 59 eb b9 06 c8 bf
       0.0887872658800618 -0.18770526878073346
000030 32 a9 92 6e 1d f2 9b 3f cf 72 69 1c 2d 9e c4 bf
       0.027290782808145404 -0.16107715499210548
000040 43 ba 6d 83 ff 44 ab bf 6a 50 dd 57 d5 80 b7 bf
       -0.05326078872063935 -0.09180959124688717
000050 09 aa 2a 69 3c 47 cb 3f 4e 5a ad b3 fc aa 9d bf
       0.21311144957628894 -0.028972576586364256
000060 ed 83 95 89 25 36 b4 3f cb 18 9c 37 65 3a ad 3f
       0.07895121201501328 0.057086146391200986
000070 5e 8a e3 6d b0 25 b4 bf e2 12 58 cb dc 7e b3 3f
       -0.07870009119828 0.07615451778844887
000080 bb 31 09 e4 90 64 c3 3f 54 ad 84 a7 5e 42 af 3f
       0.15150653013769308 0.06105323595906023
000090 85 f2 c0 38 99 f4 b3 3f 46 26 bf 75 68 56 bd 3f
       0.07795102725590126 0.11459973215746641
0000a0 0c 4a d5 ce 81 99 a3 bf fe 9f 3e b2 00 6a ca 3f
       -0.03828054094141828 0.2063599462828733
0000b0 b6 3b fb 61 51 1d c3 3f e6 cf f3 ca ab 06 c7 3f
       0.1493322113442141 0.17989108476433485
0000c0 bc 23 2a d3 dd f4 7e bf 8a 65 19 81 8e 31 b6 3f
       -0.0075577416452085565 0.08669367458187174
0000d0 d6 29 6f 8b 7a 62 b7 bf dd fe df fa 8c 89 a3 bf
       -0.09134641555934961 -0.03815880358160737
0000e0 54 ca d6 b4 8a 3d 9c 3f 14 04 e0 d4 a9 15 d2 3f
       0.02757851341966451 0.2825722292764692
0000f0 72 3a bd 01 31 e5 a9 3f b2 37 ed 3e 7c 67 a2 bf
       0.05057671686391964 -0.035945780450318834
000100 a9 cf 83 e6 48 ce 80 bf b1 51 33 c6 8a 2e ae bf
       -0.008205956969028554 -0.05894883794249795
000110 a4 ae e1 26 53 15 c4 bf db 0e 68 0b 9c 18 a2 bf
       -0.15690078161730014 -0.035344005958931134
000120 dd 5d 60 91 80 3e bd 3f f0 00 26 2a 6c e9 b3 3f
       0.11423495816449454 0.0777804949666494
000130 b7 79 5e 6b 0e 2b b3 bf 15 82 ad 06 8f 33 b7 3f
       -0.07487573739351815 0.09063047326117897
000140 0c 33 ac 1d 5a e5 b6 bf 35 49 06 7a 47 23 95 bf
       -0.0894371340220454 -0.020642391989505533
000150 69 6a 78 60 91 89 a7 3f 12 5a 89 b9 0f c9 b0 3f
       0.045971434618157066 0.06556795386982397
000160 d9 df f3 85 ca 71 c6 3f 4c ac 42 b5 8f af b4 3f
       0.17534762898117043 0.08080385375312565
000170 d0 0d e4 12 45 78 c1 3f 6e 9e c6 56 37 79 b7 3f
       0.1364828436127099 0.09169336193610331
000180 d6 12 f4 d9 ed 07 b8 bf 14 ff 5b 36 d5 fc a9 bf
       -0.09387098857048257 -0.050757086644806076
000190 f5 60 65 b7 9c 1c 9a bf ba 41 ed f0 49 0f a9 3f
       -0.025499771779636544 0.048944769535072166
0001a0 25 44 ed 76 b9 2c b2 bf 24 5f f7 a7 e3 ce bd bf
       -0.07099494126784174 -0.1164381299089397
0001b0 1a 79 4c f1 f9 8f c5 bf 1b 50 e4 3a 7e 3c a1 3f
       -0.16845630914844706 0.03366465062040921
0001c0 72 d0 c4 93 90 a7 b9 3f 06 ce 15 a4 3e 24 9c 3f
       0.10021308524739128 0.02748201252457074
0001d0 fb 49 d4 6d 7d 55 c2 3f 28 43 70 1b 2d e9 b3 3f
       0.14323394644505058 0.07777673644910676
0001e0 ce c3 ea 8e 74 2f b6 bf 80 d2 25 4d 15 6b a4 bf
       -0.08666161050020024 -0.03987948004479325
0001f0 ea 44 3f 3b f8 2f 95 bf 1c 3c 9d 01 29 cd c5 bf
       -0.020690802208098193 -0.1703234918481663
000200 89 00 a2 d0 e5 57 bb bf 69 ba df 16 93 96 bc bf
       -0.10680996268820499 -0.11167258556791072
000210 e7 0d e3 62 26 11 a7 3f fb cd 1b c7 2a 94 c0 bf
       0.045052718707235866 -0.1295217010698336
000220 c2 e9 87 00 8e e7 ae bf 5a 34 c4 f9 7d 38 b3 3f
       -0.06036037212830393 0.07508075092137415
000230 46 d6 e2 b3 5f f4 b4 bf b3 f2 99 56 1f 84 b2 bf
       -0.08185384885549593 -0.07232852806368832
000240 7b 40 d5 74 76 08 94 3f 22 e7 69 bc 0b 62 8e bf
       0.019563532715722403 -0.014835445105962079
000250 36 51 ac 64 e2 4b 88 3f 58 4b b2 23 82 2d cd bf
       0.011863487908649089 -0.22795130484572712
000260 b9 e9 e6 13 9b 91 c6 bf 3d 9a 6b 6c 40 26 ac 3f
       -0.1763185355355981 0.05497933696260702
000270 a0 30 20 84 36 5d c5 bf f3 76 5d 71 47 ee b4 bf
       -0.16690713359310383 -0.08176085012152239
000280 3c ef c8 d1 3d ec c3 bf e8 65 b7 57 52 23 af 3f
       -0.1556470178928694 0.06081635781056233
000290 fb 20 4b 37 14 be d2 3f 8e 8e 53 8c b7 f0 c0 3f
       0.2928514995551407 0.13234609939455705
0002a0 9b 86 bf 6d 17 04 a9 bf b8 59 de e3 6e d0 b0 3f
       -0.04885934080790585 0.06568043769070797
0002b0 b8 45 ad 2c 99 89 a5 bf 25 0e 70 b9 0e 2d d0 3f
       -0.042065417007175865 0.25275009259368836
0002c0 e7 f2 20 ef 4d d7 8c 3f 85 ba 74 15 92 6a c8 3f
       0.014082535610321979 0.19075227782873952
0002d0 c9 ec 5c 6e 66 c1 a4 bf 01 29 38 ff ba f6 cd 3f
       -0.04053802582935757 0.23409211599238947
0002e0 95 c0 35 e3 b0 82 bc bf b1 96 6f 07 73 89 c2 3f
       -0.11136918589704899 0.1448196207340309
0002f0 a9 62 f1 56 43 70 9a bf e1 cb 77 ae 0c d8 c6 3f
       -0.02581887453229351 0.178468308629447
000300 8d 09 9a 70 0b 39 c3 bf 4b 77 6f fc b2 0c ba 3f
       -0.15017836568956647 0.10175627387021995
000310 5e ed a1 62 ae 22 b8 3f 55 6f 49 3e 1b 15 a1 3f
       0.09427919300099094 0.03336415419900499
000320 53 77 44 34 c9 fc c3 3f dc 31 f1 50 a7 3e c6 bf
       0.15615191509362578 -0.17378703548673868
000330 45 14 c5 15 79 57 b0 bf 78 f7 e5 8d b4 f9 b5 3f
       -0.06383473187914131 0.0858414503508963
000340 b3 46 20 5a 48 25 b0 3f ea 5a c5 41 bf a5 93 3f
       0.06306888771384926 0.01918696249898747
000350 5b 06 16 72 85 6f b2 3f e9 88 3d 14 9a 09 bf bf
       0.07201417956641747 -0.12124026292943636
000360 8c b1 57 ca b5 e4 b3 3f 3f 2b 26 b3 e4 1a aa bf
       0.07770858945850118 -0.05098643004301672
000370 d2 de 99 1b e1 5a b4 3f ef 44 aa 7c e5 eb d2 bf
       0.07951170848707115 -0.2956479756767995
000380 6f e6 20 d9 e6 30 c4 bf cd 22 a3 37 75 08 6f 3f
       -0.15774236299494102 0.003788212719062356
000390 0c e3 e9 5a cc 91 b1 bf 49 ef 30 83 f8 5f c3 bf
       -0.0686309549290735 -0.15136629491632395
0003a0 d6 3c 7f 12 52 78 bf bf a7 3e e2 9a 98 0c ba bf
       -0.12292969657504513 -0.10175470143644337
0003b0 77 e2 d0 1c 55 cb 8a 3f 33 bf f4 c7 98 6f 99 bf
       0.013083138410466362 -0.024839770511959357
0003c0 5d 7e a4 d4 4e eb 91 3f 45 40 dc a1 b9 1a ba 3f
       0.017499191025420625 0.10197029306095924
0003d0 ed c9 96 dd 18 72 b1 bf 36 31 ce 17 e8 99 a4 3f
       -0.06814723405731345 0.04023671427339297
0003e0 02 e6 69 e6 a0 60 ce 3f e4 85 2b bd 50 43 97 3f
       0.2373238682810524 0.022717725320836282
0003f0 3d 8f 94 c1 01 18 b5 bf 2e 05 29 93 bd ad b9 3f
       -0.0823975656135731 0.10030732004908735
000400 b3 30 b4 55 5d 89 c8 bf b3 42 c3 a5 78 b2 82 3f
       -0.19169203457602677 0.009129469450642835
000410 0a f7 43 f2 ab 9a 8c bf b6 65 10 d3 c9 67 bd bf
       -0.013966887789588895 -0.11486493494921643
000420 33 b7 ac 6a 5f b3 ba bf 04 3f a2 6e 4d 23 bd 3f
       -0.10429951052057333 0.11381992293376803
000430 77 8f 1b a4 a6 42 c9 bf fd f4 8c de 22 a7 ba bf
       -0.19734652531689864 -0.10411279614796239
000440 60 50 98 d7 15 0c 93 3f 55 59 0e 8f e2 63 bb bf
       0.018600789340851853 -0.10699287407473908
000450 c0 ff 96 16 64 e4 9c bf 06 cf fc 11 1c d5 b2 3f
       -0.028214992407583628 0.07356429518841531
000460 d0 22 26 cf 7f f0 92 3f e1 68 a1 27 aa f4 b1 3f
       0.018495556848878547 0.07013953654805817
000470 bb eb ba 15 fc 6d 96 3f 6c 3a 0d d7 b1 a7 97 3f
       0.021903933359435728 0.02310064196654553
000480 ea ff 6e 95 ca ff a4 bf b7 91 dc 18 ab b1 9a bf
       -0.04101403307095082 -0.026068375961715264
000490 f0 f5 8a 09 26 09 c3 3f e5 83 d1 3a 7c 10 ad bf
       0.14871669259984754 -0.05676639764784123
0004a0 da 07 20 f0 de ac b8 bf 73 b0 21 8a f8 e2 b7 bf
       -0.09638779985837634 -0.09330705044129832
0004b0 32 42 f0 c0 3b 58 c6 3f 5a fe 2a 52 1e 25 ba 3f
       0.17456767006707846 0.10212888246587096
0004c0 20 61 08 0b f2 be a2 bf 58 76 a5 a5 34 17 c1 3f
       -0.03661304840733437 0.13352068031501818
0004d0 e8 a4 1e 03 f4 7f a2 3f 89 e7 3f 38 16 a4 be bf
       0.036132455235312666 -0.11969126580507185
0004e0 41 20 c7 66 5c 74 c2 3f c4 f2 7a e7 6e 76 8a bf
       0.14417605417679805 -0.012921205939499976
0004f0 a6 25 74 20 6d ab a4 bf 57 97 93 48 fc b5 8a 3f
       -0.04037037869609188 0.013042422261104454
000500 42 a9 78 9e 5c ba aa 3f b2 ae b5 51 3e 0b b2 3f
       0.05220307764496336 0.0704840611921849
000510 da 8d 8d 93 92 3f cc 3f 5a 1c a2 da 21 fe ba 3f
       0.22069008068784407 0.10544025027967177
000520 71 71 f4 0c 1a a8 8c 3f b6 a0 40 05 3e 77 8c 3f
       0.013992503662443952 0.013899311576168177
000530 85 dd 5e 85 4c 46 b3 3f a5 0a 40 80 08 fc c0 3f
       0.07529142624013303 0.13269144308295214
000540 5b 5d c3 e3 00 49 a2 bf 2b 3b 49 db 3c 57 8b 3f
       -0.03571322231590087 0.013349986497954788
000550 ac 96 7c ac c7 a7 a4 bf e4 a8 a7 09 3c 45 a2 3f
       -0.040342559628965574 0.035684467485980226
000560 b6 97 13 2a bf 85 68 bf d7 3a 07 2d 5e 82 bf bf
       -0.0029934629134115943 -0.12308300589868836
000570 d9 23 31 72 1b 8d c6 bf 2d 74 c5 e7 43 44 c0 3f
       -0.17618125034121482 0.12708329026182366
000580 bd 34 ec f2 73 43 af bf 49 13 e3 e1 94 5f bd 3f
       -0.061061499980590274 0.11473970904178289
000590 01 06 54 58 98 4f a7 bf 94 ce 95 36 62 dd b3 bf
       -0.04552913740372944 -0.07759679634710387
0005a0 b9 39 c7 ab ca f5 9b 3f b5 2f d0 28 92 51 d0 bf
       0.027304808363447928 -0.25497869477907936
0005b0 1b 5c 03 b4 ce c3 a9 3f 9b c9 ae b6 63 35 b6 bf
       0.0503220171682914 -0.08675215921429073
0005c0 04 92 5f 49 84 41 bb bf 1f a4 da 35 a4 62 a4 3f
       -0.10646845618573059 0.0398150745143726
0005d0 09 2d 0c d2 4d 2d 8d 3f 76 be 3f 1b de 84 83 bf
       0.014246566746371163 -0.009530768591474042
0005e0 11 77 fb 50 b4 db b3 bf 13 e3 b7 0c fd 97 bd 3f
       -0.07757117249590474 0.11560041008477766
0005f0 d7 db bb cb 67 ac b9 3f 67 93 1e 5a 36 a7 64 3f
       0.10028694843263906 0.002521139293963182
000600 d0 a8 cd b3 38 97 bf 3f c4 d1 b4 bd d6 57 b8 3f
       0.12340120687227629 0.09509031421186537
000610 53 f2 76 50 83 ee 30 3f 04 b7 b6 da dd 0b b1 bf
       0.0002583571044530209 -0.06658732022944142
000620 d1 b3 d4 67 1d 8d b1 3f 22 56 9b 97 ef e4 99 bf
       0.068559491967519 -0.02528738367876405
000630 87 09 64 30 25 24 9e 3f 92 5a 2d 33 1e 6b 8f 3f
       0.029434758261240226 0.015341030060580328
000640 25 70 fb dc 28 37 bb bf b8 3e c1 0e 0a 23 d0 3f
       -0.10631041903565171 0.25213862839607826
000650 7a 3f 5a 9d eb ef af 3f 17 58 f6 9e 22 ac cd bf
       0.062377322156975404 -0.23181565057592543
000660 58 f7 cb 50 50 e4 c4 3f 48 b6 7e 6b 6e db b1 bf
       0.16321758217957938 -0.06975450634373559
000670 f5 c7 1a b6 0f e7 b4 bf b2 19 d0 d7 21 e4 a5 bf
       -0.08165071674264353 -0.04275613555369108
000680 0d 7a f8 e2 8a cb 94 3f c3 94 8d 8b a6 62 b6 3f
       0.020307703116595067 0.08744278819138444
000690 5a 10 96 ce 71 25 9f 3f a6 ad e6 33 0f 9d c6 3f
       0.030416277154941752 0.17666807207329532
0006a0 f7 56 e4 aa ba 57 b1 bf 3c 17 fc ec a5 77 a1 bf
       -0.0677448909012489 -0.034115967921066276
0006b0 ad e2 a4 5c 0b aa b0 bf c0 ba 10 a8 5a 8b b7 3f
       -0.06509467136209919 0.0919701252284808
0006c0 7a 40 0e 18 e8 84 c2 3f 91 db 1e 40 13 54 a4 3f
       0.14468098806947066 0.03970394284936341
0006d0 94 03 ab 82 51 96 c0 3f 6e d6 40 41 ff 58 d5 bf
       0.12958735351824358 -0.3335569512595161
0006e0 bd 95 9a 78 ad 26 b4 3f 5a 78 1e 7a 4f 1e c0 bf
       0.07871517366819254 -0.1259250017437264
0006f0 82 f6 0b ee 38 f4 cb 3f 55 91 31 3d 53 b4 b8 bf
       0.21839057563186165 -0.09650154346451718
000700 5b ad 21 c9 9d 8f be 3f a3 8b 79 91 b0 22 cd 3f
       0.11937891159475582 0.2276211462331875
000710 54 fa 8f 4c 35 e3 c0 3f 8a f0 ef 9e a4 a6 96 3f
       0.1319338439788732 0.022120067787895915
000720 67 52 ed 8c 67 0b c1 3f 98 92 cd 8e eb 7a bb bf
       0.13316053754046495 -0.10734436260606584
000730 c9 5a 3e 13 30 f8 a5 bf a1 7e 4e 5a d1 49 8f 3f
       -0.04290914759547133 0.015277514999808619
000740 d7 e5 d2 c1 a0 40 9d bf 4f 90 c9 ae 0f 36 91 3f
       -0.028566848592822183 0.016807789843724937
000750 38 83 34 e0 fc fd c8 bf e2 eb 56 bf 9e 4b a6 bf
       -0.19525109241023997 -0.04354568563163476
000760 68 cf ed 81 83 49 5c 3f e6 b1 f8 bb 9d 86 bb bf
       0.0017265114072104407 -0.10752282942912181
000770 15 da c0 41 c7 61 b4 bf 0e f7 f6 de 8b 5e 99 3f
       -0.0796169791727624 0.02477472828262877
000780 68 11 1c 50 1d 26 c7 bf 6d b8 2b 64 55 db c1 3f
       -0.18085066234210534 0.13950602904464252
000790 7f d7 32 e8 f6 18 aa bf 59 0c aa ad c0 dc b9 bf
       -0.0509717138715322 -0.1010246681199062
0007a0 b6 11 f5 47 45 45 ba 3f 92 6d 61 2f 95 dd 9f 3f
       0.10261948591966683 0.031118708626633636
0007b0 97 4f 8e e3 e8 a3 b0 3f bd 31 5d e1 ed 48 b6 3f
       0.06500106387676251 0.0870503115849663
0007c0 be 33 79 d6 ab ef ae 3f d0 74 bb ea ac 23 ca 3f
       0.06042229645809226 0.20421372853789999
0007d0 14 4b a3 e0 40 ee c2 3f b4 9d 46 40 03 70 82 3f
       0.14789591759343834 0.009002709769290053
0007e0 23 09 72 e9 94 61 b7 3f 12 bc 0c ba e9 e5 57 3f
       0.09133272837974409 0.0014586241233691716
0007f0 44 30 c3 cb 36 2c bd bf fc 63 76 a3 49 16 b7 3f
       -0.11395590281171147 0.09018383255751411

conv4.bias f8 [32]
000000 b3 74 91 ff f6 26 8b 3f a0 2d d9 fe a5 b3 a9 3f
       0.013257913278886901 0.050198733672540685
000010 18 39 8e 7f c2 8f 97 bf 4e 75 03 01 8a 0c 8e 3f
       -0.02300933745896669 0.01467235389321311
000020 e7 b9 4b 01 f5 a9 85 bf eb a1 69 c0 78 4f b3 3f
       -0.01057807359890446 0.07543139169286632
000030 56 b6 00 80 5a d6 b0 3f 8a 33 e1 60 f1 17 b6 bf
       0.06577077508037496 -0.08630283942438957
000040 5e 3f 22 02 0b 85 92 bf b4 48 a3 d7 3f 69 47 bf
       -0.018085643773303565 -0.0007144510011818568
000050 b7 d5 90 07 28 de 65 3f 15 89 51 a0 d7 84 a1 bf
       0.0026694089724752196 -0.03421663124096789
000060 02 2e 67 00 20 82 93 bf 02 88 d0 1c 10 41 43 bf
       -0.019051075005149805 -0.0005875900911898049
000070 3c de 95 bf 20 df b0 3f 9d 79 ce 0c 88 c1 56 3f
       0.0659046619165275 0.001388914929726682
000080 23 7b 5e fe 88 47 89 3f 75 42 bb 7d e4 d3 ab 3f
       0.012343473685005052 0.05435098681266918
000090 d3 0b cd 7f a5 10 a6 3f 57 9f ed 3d 1c c0 ad bf
       0.04309575257368405 -0.058106310424419653
0000a0 1d 2a e2 01 8c 7d 79 bf 0b 0a d9 7f 3b 74 a8 3f
       -0.006223246482600445 0.04776178298608976
0000b0 92 81 b3 fe ef 4c 6f bf ae 29 c2 bf 47 5d b7 3f
       -0.003820866336909209 0.09126709395983454
0000c0 41 49 88 e0 c4 01 b7 bf ca 51 7a e1 b5 4b a1 bf
       -0.08987074357745418 -0.0337807500592678
0000d0 af ef a9 ff dc 48 b2 bf 81 1f 99 a0 94 77 ae bf
       -0.07142430536072085 -0.05950607738901593
0000e0 a0 98 68 df 42 19 b2 bf f8 84 06 82 aa 0a 9e bf
       -0.07069795564948089 -0.029337562738537465
0000f0 a3 11 61 01 f2 5d b7 3f 32 91 9b 80 91 e1 ac bf
       0.09127724202796243 -0.05640845007818242
