riesznet-mnist-largescale_train5k-ep20.pth (torch, 181982 bytes, 32 tensors)

conv1.weight f8 [12, 5, 1, 1]
0	0xbfd13e653871c69d	-0.2694333125319675
1	0x3fa46eb389b126f9	0.0399070840436035
2	0x3fd71b4b140705e8	0.3610408492641839
3	0xbfd29d066bf99e41	-0.29083405060234574
4	0x3fd7783687f1879b	0.366712219960499
5	0x3fd0db688be13b77	0.2633916250242047
6	0x3fa903e5dab7fc92	0.04885786337762811
7	0xbfb48cc206888c18	-0.08027279529100928
8	0xbfd04660d03c8e52	-0.2542955430564905
9	0xbfbec4322ff1a8c1	-0.12018121405131678
10	0xbfd0b9fca7f9f0f9	-0.2613517418283347
11	0x3fcf763ad18d87c3	0.24579558593819514
12	0xbfd6f5a243fad2d9	-0.358742300402168
13	0xbfd8d05df3cd9848	-0.3877177124871918
14	0x3fbc5b460fa1ba9e	0.11076772576937308
15	0xbfc311c117271387	-0.14897931700229725
16	0x3fdb8c96dd6fd28b	0.43045589089096187
17	0xbfce4bba217217e2	-0.23668600686158842
18	0xbfc254e9cff28d2c	-0.14321634916005033
19	0x3fc8f9da97e3780c	0.19512493530686503
20	0xbfc8a491549fd2d1	-0.19252220756575025
21	0xbfbf789edf98dba6	-0.12293427428163159
22	0xbfa6999c6579642b	-0.0441407083387236
23	0xbfbfc888fdeb030f	-0.12415367316408442
24	0xbfd1f3a202d96865	-0.28049516943213454
25	0xbfc069f9b450d719	-0.12823411278230237
26	0xbfc37e65c192d19e	-0.15229484512168495
27	0xbfb78e4dd7dcf0df	-0.09201513786405567
28	0xbfc54be1161193be	-0.16637815072604484
29	0x3fb1c8795fdb5931	0.06946524229292518
30	0x3fd027eea1229f99	0.25243726478447
31	0xbfd0715ccd76a102	-0.2569190985182247
32	0x3fd3f4c6beb9e439	0.3118149626312206
33	0x3fb7b2a1d9740a65	0.09256946143072182
34	0xbfcaae6f941aa6ab	-0.20844835979123863
35	0xbfc4f6ec898e086a	-0.16378552166503663
36	0x3fce35600ef12999	0.2360038826903519
37	0x3fb00284d411431d	0.06253843476703165
38	0x3fcf55c3accf6317	0.2448048204230637
39	0x3fd5ec0342a0cb16	0.34253007418298986
40	0x3fc2aaeaa71f0a87	0.14584096107690334
41	0x3fcd4b9a300c5f88	0.22886969896421427
42	0x3fdac00620de68ef	0.4179702111229195
43	0x3fb877eb12312857	0.09557980722561986
44	0x3fdace8132f5b385	0.41885404564418877
45	0xbfd7934b23edc072	-0.3683650828234085
46	0x3faeee69e56a0dbf	0.060412701849624544
47	0x3fc77e79681eb306	0.18354718765240124
48	0xbfdc42cb0014e931	-0.44157671936013104
49	0x3fcd84a6258b9dc8	0.2306106265379937
50	0x3fca5d632b652668	0.2059749566927167
51	0x3fd6b5600ae06bcd	0.3548202615945087
52	0xbfd40827dda7d29b	-0.3129977860074093
53	0x3fcd6cce794bad46	0.2298830120338186
54	0xbfb92c654399c91a	-0.09833367252739258
55	0xbfa371fc4b56b06e	-0.03797901553784376
56	0x3fb7074e30f5804d	0.0899552220848829
57	0x3fa6f7f02f180b01	0.044860368489045406
58	0xbfb65691772b05d1	-0.08725842627884296
59	0xbfd6c2afab550345	-0.3556327031292777

conv1.bias f8 [12]
0	0xbfc42bd28caf1b48	-0.15758735532127788
1	0xbfb87575f445d9af	-0.09554230893795677
2	0xbfd320d25019faeb	-0.2988782675019325
3	0x3fb3bd40ce4fc004	0.07710652386572298
4	0x3fc245af0600c73a	0.1427515773116797
5	0xbf63b21d9224dfd8	-0.002404268031707329
6	0xbfc16fe280196438	-0.13622695212214508
7	0x3fc2255ad4c4b2df	0.14176497830467036
8	0xbfd5eb242748eb0e	-0.34247688137445287
9	0x3fd61de94d0db203	0.34557564282184233
10	0xbfc2c1d16da41975	-0.14653985837521658
11	0x3fd3a3adf459df41	0.3068652044525955

conv2.weight f8 [16, 60, 1, 1]
0	0xbf910abca50f485c	-0.016642520498699617
1	0x3fb9135a6ac8fd7e	0.09795155627306504
2	0x3fa4edeabc86c34f	0.04087766219470856
3	0xbf7511d1e08a5e4a	-0.005143947441545624
4	0x3fa26feb60a1eb3c	0.03601012758823294
5	0x3fb6f284f9356d82	0.08963805278965789
6	0xbfb5c3d7389f4121	-0.0850195420491713
7	0xbfb3a38456160f63	-0.07671382047379675
8	0xbfb5038f61ba61f7	-0.08208557258547687
9	0xbfc03916d265b88b	-0.12674222253139464
10	0x3f8c5ea4fbbd8424	0.01385239499330921
11	0x3fa52809363884a4	0.04132107531428034
12	0xbfba06379d6b261a	-0.1016573676417
13	0x3f98c37e6959f38e	0.024183249645364273
14	0x3fb953c59d626c29	0.09893450825113405
15	0x3fa6938eebfaa882	0.0440945303974596
16	0xbfb94690401b4fe0	-0.09873296322922398
17	0xbf95a41fd94ad22d	-0.021133897435634253
18	0x3f9ff4b8ecc5010f	0.031206979228273698
19	0x3fa785b0347bc900	0.04594183579128419
20	0xbfb137816ae6fee8	-0.06725319728775114
21	0xbfb9bf4bbc0936dd	-0.10057519283983703
22	0x3faf8d11dec5435a	0.061623152202293155
23	0xbfb83da658728d0e	-0.09469070109712538
24	0xbfbb3cff277eaf5d	-0.10639948572378218
25	0xbfa798474648c200	-0.04608366711579848
26	0xbfb5efb442714ec2	-0.08568884489187226
27	0xbfa7ee0901645514	-0.046737939281380175
28	0xbfb1af9011aed3c8	-0.06908512527191057
29	0x3fc40a936685dad2	0.15657274728774567
30	0x3f7f29111b475feb	0.007607523748866622
31	0xbfb292c46a7df561	-0.0725519905081078
32	0xbf8201391b679369	-0.008791395329305467
33	0xbfbf5f097d072118	-0.12254390051305497
34	0xbf5a596d47d7238c	-0.0016082350915544745
35	0xbfb1740f8e1a4437	-0.06817719668676224
36	0xbfa13e975b893af4	-0.03368065826781744
37	0xbf8c822cab400f06	-0.013920163131849527
38	0xbfb2835321d3f33c	-0.07231635642888262
39	0x3f9f8d039b68ca8e	0.030811363563950915
40	0xbfb0a632e2687ede	-0.06503599193137741
41	0x3fa44bc1eb9bc71a	0.03964048386650472
42	0x3f8058231c8881dd	0.007980608280434726
43	0x3fc5640e7d54dfa8	0.1671159851045989
44	0x3fbd352b8b4b4234	0.11409256125194461
45	0xbf350660c0253fd7	-0.0003208147246782622
46	0xbfa07e0fad04bf79	-0.032211770887783105
47	0xbfa5c34efd471ffb	-0.04250571100016028
48	0x3fa81400fdc54ccf	0.04702761743342309
49	0x3f700bf51dfda8d0	0.003917653550028002
50	0x3f8c738d38af26d8	0.013892272274364556
51	0xbfa13903bfa50667	-0.03363811220561957
52	0x3fbd3b2de30c0a28	0.11418425362720852
53	0xbf70f00fee9f2b46	-0.0041351911876955135
54	0xbf4e4b4b8d2af8a9	-0.0009245032218456922
55	0x3fc1b87a8e4dac0f	0.13844234417351273
56	0xbfa64ba2e3cd72dd	-0.043545809085775856
57	0xbfa79b8846917181	-0.046108492483400994
58	0x3fbcd539c3c528ae	0.11262856511635519
59	0xbfc14f396984bb0e	-0.13523023273725027
60	0xbfb179b9c8a2bfc6	-0.06826363704999414
61	0xbfb929e9637985d8	-0.09829577139455326
62	0x3fad29dae763693f	0.05695995401920805
63	0x3fa74290d8f628b2	0.04542973183113598
64	0x3fabe5542df0afaf	0.05448401509087774
65	0x3fb083154dc99f05	0.06450017117606073
66	0x3fa7f65d8d5cb4ce	0.04680149412738786
67	0x3f76dcceaa4d9a3f	0.00558167198764764
68	0xbfb13708a8fb4266	-0.0672459995796629
69	0x3fb15fea4a4d1667	0.06786979974739325
70	0x3f9ebbeeb23b4292	0.030013780239473827
71	0x3fb4e306f825efae	0.0815891605215586
72	0x3fc2fe16f5ccd0c3	0.1483792019076927
73	0x3f85316753794b07	0.01034813617221665
74	0x3fb8924b76c1f7cb	0.09598228120191192
75	0x3fb6249b353799f1	0.08649606751678342
76	0x3f967ab0d2970173	0.02195240292871987
77	0x3faeeeede5bea239	0.060416635794642244
78	0x3f951552377081cc	0.020589146264798505
79	0x3fc4dff5ce751985	0.16308472233704321
80	0x3fb7481ae45c5eab	0.09094398570266075
81	0x3fb5d0186713e734	0.0852065326361327
82	0x3fc1170d40dac3a3	0.13351598421789132
83	0x3fa1e7b8a0f21be9	0.034971017500588016
84	0x3f9ef9814eef31b9	0.030248661463518654
85	0xbf690eb32cdf843f	-0.0030587672726914146
86	0xbf9f177343cfb395	-0.0303628931177858
87	0x3fb980dc06e617c5	0.09962248962810268
88	0xbf947a7fbc8cb4e3	-0.019998546488911095
89	0xbfba19f8ea84cf18	-0.10195880628162646
90	0xbfb805b4f0ac9480	-0.09383707881768721
91	0xbfb109360f5da714	-0.06654680133001661
92	0xbfa37a2a114ad802	-0.038041414843448265
93	0xbfb8c0c0ddbe2fc2	-0.09669118322034279
94	0x3fa1f710f4559228	0.03508809073062863
95	0x3fb2611e94a3b7f1	0.07179442528624215
96	0x3fabaa055a41e11c	0.054031531589261855
97	0x3faf1fe2f2b502ee	0.060790149810150726
98	0x3f844112d6973365	0.009889743016992811
99	0x3f57839531d60417	0.0014351803759782339
100	0x3fa5b5a8d61dc4bb	0.04240157712673339
101	0x3fb845739dc789c0	0.09480974771535156
102	0xbfb6ed84aebb63e0	-0.08956174150388518
103	0xbfa4efd1ca44a54d	-0.04089217752545924
104	0x3fb1b7e4616f664d	0.06921222094333608
105	0xbfc1b9783caaa1ab	-0.13847258531792525
106	0x3fac94561d4cbe76	0.0558192168012938
107	0x3fab0a5d866e5bba	0.05281345621113283
108	0xbf95d90f74b83b55	-0.021335832118036652
109	0x3fa3eec4a942c60a	0.03893103185817999
110	0xbfaa7ffb00cd91b6	-0.0517576635818701
111	0xbfb379764da22793	-0.0760721149000843
112	0xbfbdd057059eaa79	-0.11646026503755448
113	0x3fb2370c3338cb2b	0.07115246058019113
114	0x3fb4cf0e674d71e4	0.08128442785295636
115	0xbfc1c51f09b8f3a6	-0.13882816290597794
116	0xbfbeed912c6eb825	-0.12081248602655188
117	0xbfa5caf66130eb7f	-0.04256410538115229
118	0xbf7a73181258da38	-0.006457418470339031
119	0x3f914f0496e8e239	0.016902991972729906
120	0xbfc2a70dc8813c4e	-0.14572307863497475
121	0xbfb71eac303e697c	-0.09031177690341069
122	0xbfaa942f8278230f	-0.05191181628840102
123	0x3fa8903303b8f26d	0.047975153164291885
124	0x3fc25c84cfdb85b7	0.14344844960491596
125	0xbf773032761817f3	-0.00566119872519798
126	0x3f9836af353052a7	0.023646104451546048
127	0xbfa28385362a2081	-0.03615967069805582
128	0xbfb6b9a09f0fd027	-0.08876994975418083
129	0xbfbf9032cef17a21	-0.12329404403997347
130	0xbf83030e368ec866	-0.009283171691866165
131	0x3fc10d75a14159be	0.13322325109284167
132	0x3fbbdeb54daba028	0.10886700769663149
133	0xbfb4402028f5c131	-0.07910347938537111
134	0xbfc4722d8b53808d	-0.15973443320308825
135	0xbfa872af66531102	-0.047749978295117415
136	0xbfb196945b4f0d97	-0.06870391110628869
137	0xbfab87bcc6913c43	-0.05376996921460677
138	0xbfb5fabb26e98271	-0.08585710239413814
139	0x3fa47bba770e652b	0.04000647261927733
140	0xbfb0f352c710a123	-0.06621281967148156
141	0x3f4e5ae2326dd015	0.0009263615109902391
142	0xbf824baf413b650d	-0.008933419397566778
143	0x3f68c10309609ef6	0.0030217227276984017
144	0x3fc0ecfb7bc6ccfe	0.13223212760713204
145	0xbfb7cf702d27dd58	-0.09300900556978797
146	0x3fb3727a585fd95b	0.07596554429605844
147	0xbfb6fc85b984a088	-0.08979068545579783
148	0x3faae278daae1d54	0.05250909490046732
149	0x3fbc10f1cd48f3e1	0.10963355314102287
150	0x3fa0f619837e4b0a	0.033127591420585814
151	0x3fbe705da94fd7d2	0.11890206702795972
152	0x3fb5417e873e3ba4	0.08303061296304165
153	0xbfa2acd5516eae41	-0.03647486323401639
154	0x3fb9673d2da6befe	0.09923155178580242
155	0xbf984a5ad659efee	-0.02372114117905249
156	0x3f5d9956b1460fc6	0.0018065783125118403
157	0x3fb80532b7d9f23b	0.09382931698377998
158	0xbfb2a769ba62eaba	-0.07286701965760303
159	0xbfb580ec153e2bde	-0.08399844664215503
160	0xbfac6a49ea905be8	-0.055498418696678986
161	0xbfbaccbf134494b2	-0.10468668194205824
162	0x3f8382d08ec6e452	0.009526852948385098
163	0xbf94c56f7e7a9cc5	-0.020284406752264745
164	0xbf7d86e41de33aee	-0.0072087202845085695
165	0x3fb29b5aaf4f575d	0.07268301754024038
166	0x3fb19b435445a623	0.06877537543700689
167	0x3fc0d4e5b728c191	0.13149711077995765
168	0xbf9729c3c58439a1	-0.022620257311297135
169	0x3f97cb496bd85437	0.023236415107096255
170	0xbfbf07e7f1ecc5af	-0.1212143865239088
171	0x3f74ed933c8790c1	0.005109381811483072
172	0xbfadd340de8beb0a	-0.0582523605025554
173	0x3f71d0890e5bf797	0.00434926545653793
174	0xbfa237608d1ef45d	-0.03557874415080484
175	0x3fb2d07f106817b9	0.0734939017348485
176	0x3f91269e28f5fd54	0.016748877763800366
177	0xbfb0cf0fb614ca83	-0.06565950579969564
178	0xbf9add61d56d815b	-0.026235130931469324
179	0xbfb9c078b0b2a33b	-0.1005931311980363
180	0x3fc0629430561cec	0.1280083881394839
181	0x3fa2f32ba4d15dfd	0.037011493558278354
182	0x3fb0f4bc7c2d9b7b	0.06623437911694723
183	0x3fa1b5fae1b39186	0.03459152226585886
184	0x3fba90895ded8eab	0.10376795333064119
185	0xbfb229ca4fa12d84	-0.07095016903001833
186	0x3fa58af51622de2a	0.04207578559129062
187	0xbf7593589b68a365	-0.00526747333655284
188	0x3fb50faea753122e	0.08227054200239856
189	0x3fc1e042d88e6176	0.1396564061549374
190	0xbfa4cf93a84b4355	-0.040646185201359465
191	0xbfb5197303059a8f	-0.08241957496430018
192	0x3fb26704c18eae18	0.07188443875809758
193	0x3f91e37c5dc41fef	0.01746935198119098
194	0xbfbdb68c873e93bd	-0.11606672574869399
195	0xbfb013c0624bd35f	-0.0628013839703505
196	0x3fc07093e27e067c	0.12843559798425364
197	0x3fa73c39b92612ab	0.0453813589583992
198	0x3f9b84d3bd49a5a3	0.026873882702067708
199	0xbfa2c82569e95087	-0.036683243921886315
200	0xbfa1f92c0fa63191	-0.035104157362272244
201	0x3fac4a3bb6cd2c10	0.055253854813223424
202	0x3fa723e98895df5a	0.04519586365034796
203	0x3fa52647a9964177	0.04130767769959481
204	0xbf6752a9fc23b517	-0.00284703445605906
205	0xbfab632ce90ca47e	-0.05349102349129796
206	0xbfbbdbce260d1455	-0.10882271222097135
207	0xbf9e7abc536f6e49	-0.02976507434128298
208	0xbfbb432b9afb33ab	-0.1064936879512987
209	0x3fa0d900cc83fa25	0.03290560242202315
210	0x3fb5ec395168ac60	0.08563574063798418
211	0x3fb29d10d73a36a9	0.07270913366866218
212	0xbfb6c77a98974955	-0.08898130631795216
213	0x3fb9d3f45dedb7b8	0.1008904198949655
214	0x3fac9cb6d06a534e	0.0558831338322877
215	0x3fa40d3b4139b183	0.039163448059158966
216	0xbfc2c3f42e1e3a21	-0.14660503627642732
217	0xbfb2d73ddba714b9	-0.073596826673639
218	0x3fb2e7121d0a212a	0.07383835991834489
219	0x3fa56b5be047f875	0.04183470833594153
220	0xbfa8d20b55ef03b4	-0.048477510681102315
221	0xbfba44736734010a	-0.10260697621925288
222	0xbf6522786434a5b5	-0.0025799132723889014
223	0xbfbb05630e322819	-0.10555094811039147
224	0xbfc08a99df849f84	-0.12922976888625837
225	0x3fb40c93b979a05b	0.07831691053581961
226	0x3facf0e10a456e04	0.056525261405763444
227	0xbfb14eb8d11d0d78	-0.06760745148954139
228	0x3f75a9ea82a21b10	0.005288997703366119
229	0xbfbd1a1075229d63	-0.11367895946260868
230	0xbf96fbd0346b3dc6	-0.022444966506382412
231	0xbfbc55d242f9c7f8	-0.11068452963971243
232	0x3fabca8f28da7ce6	0.0542797791833836
233	0xbfa84010df73bced	-0.047363784100406515
234	0xbf933677c412188c	-0.018762465803341885
235	0x3fbf653120e175a9	0.12263781597854141
236	0xbfb4ac12bb5cf555	-0.08075062822623143
237	0xbf890ff6689657c3	-0.012237477366209398
238	0xbfba1035795aaf85	-0.10180982792615907
239	0x3faf7f482da43691	0.06151795918604564
240	0xbfb9fb764cb70f24	-0.10149325726439123
241	0x3faaccfc4cfdafd3	0.052345165632544564
242	0x3fb00d7fd9bf139d	0.06270598474573182
243	0xbfb2dc51ed1b5304	-0.07367431677569064
244	0xbf82e90b24429f09	-0.009233557743143732
245	0xbfa70a84149c1976	-0.04500210525115993
246	0xbfc23a6e11665236	-0.14240814065546353
247	0x3fb6e103ecacf363	0.0893709614583265
248	0xbfbad2e5cc37939d	-0.1047805427147765
249	0xbfb2029c8587fc4e	-0.07035234699286372
250	0x3fb15f1ff5e04e3c	0.06785773995243799
251	0x3fbdcc7555bb40c3	0.11640103667309902
252	0x3f935654602dcdc1	0.018884008760734042
253	0xbfa24e918bc2cf3e	-0.03575568038050257
254	0xbfbe05ff653a150a	-0.11727901669845067
255	0xbfb3927e843b5c02	-0.07645407417599873

conv2.bias f8 [16]
0	0xbfa0a7104294eaad	-0.03252459347500767
1	0xbfb4c6b4e0ee1090	-0.08115702144101733
2	0x3fae8b1806887c52	0.05965495185613946
3	0x3fb043807f13fdc9	0.06352999784939252
4	0xbfb0294abfe7b410	-0.0631300657766618
5	0xbfa2f5157eb770e9	-0.037026092260676276
6	0xbfa3e1487ffa1056	-0.03882814943520489
7	0x3fb84c363f1a7f7a	0.09491290131199817
8	0x3fa0243280431f52	0.03152616325092929
9	0xbfb95a3a3b897bfd	-0.09903301194707122
10	0x3fb5ec72c08127f6	0.08563916396920476
11	0x3fa3af1e7edc458d	0.038445427881138895
12	0xbfbf989c61b88901	-0.12342240701449116
13	0x3fa347627f1222f4	0.03765399743230616
14	0xbf909c60fdf88696	-0.01622153806795853
15	0xbf9314688bf6e9f2	-0.018632539313083236

conv3.weight f8 [24, 80, 1, 1]
0	0xbfc0e1806cdd200e	-0.13188176456083095
1	0xbfb866217653018d	-0.09530839098716211
2	0xbfa814daff3fbcc5	-0.04703411451179699
3	0x3fb75c9092ac4dac	0.09125617581258066
4	0x3fb579bbdb4f6d61	0.08388876060728513
5	0xbfb4254110f356ea	-0.07869345344382919
6	0x3fc038fd96a5979f	0.12673921447566003
7	0x3f701c84c90566a1	0.003933447544420738
8	0xbfb4348c6b005b13	-0.07892682659472099
9	0x3fbe8e52f2b7f6dc	0.1193591921400769
10	0x3fac54f1342c44e9	0.05533555757404846
11	0xbfb1c1c9d8e371ff	-0.06936322732094168
12	0xbf8f9843de8d9532	-0.015427141408233955
13	0xbfbc1ea293fd8452	-0.10984245408100549
14	0x3fa7def5c8056ea5	0.04662292544045713
15	0xbfb21c5dc5a52980	-0.07074533534356497
16	0xbfaa41d441c5c9bb	-0.051283486393816934
17	0xbfb88fa0ea920017	-0.09594159819425872
18	0xbfb7e4a771508abd	-0.0933327342650427
19	0x3f9434daf9ac693c	0.019732877243862065
20	0xbfb1574a006cbf06	-0.06773817549105496
21	0xbfb2ae5be9664c82	-0.0729730076621298
22	0x3f046f5b02456f25	3.8976635809288744e-05
23	0x3fab19a094561725	0.0529298955034803
24	0x3f99f9381b3b6433	0.025364758169278367
25	0x3fac90786ff0b27e	0.055789722122743676
26	0x3f5a5754ce67f6d2	0.0016077354608791572
27	0x3fac97969283f7b4	0.0558440259792258
28	0xbfb4fca004991940	-0.08197975265747903
29	0x3f85122c393ed56c	0.010288568016998588
30	0xbfb092de735add86	-0.06474104229243069
31	0xbfbf4909796a14a7	-0.12220820631235317
32	0xbf8ccf83ada8fd97	-0.014067677247225059
33	0xbf8a99dcbd6eb35e	-0.0129887814817608
34	0xbf5b01689783a114	-0.001648285046082225
35	0xbfb49482427b886b	-0.08039106486424578
36	0x3faedfa196cc2445	0.06029992070950433
37	0x3f90116fdc519149	0.01569151670663985
38	0xbfa72a388d67e5a0	-0.04524399496217346
39	0x3fb68a4eb3a92559	0.08804790388343998
40	0x3f966990cf1d8d7e	0.021887076035807855
41	0xbf6db5d94d7f3ac9	-0.0036267513459969686
42	0x3fb158358fbb46b2	0.06775221594878181
43	0xbf9989496b908dc7	-0.024937770071245226
44	0x3fb486554b062313	0.08017476159706076
45	0xbfbf4436ed8bce0c	-0.1221346216150822
46	0x3fb74998d8ef7bb6	0.09096675201679613
47	0x3fac18917409040a	0.05487494031377345
48	0x3fa16300d0700a2b	0.033958459323930455
49	0x3fb70a7a307fa529	0.09000362094925109
50	0x3fae7f9edd11f573	0.05956741760835884
51	0x3f9b7ffcb9eb33c3	0.02685541996725128
52	0xbfa494239ffb525c	-0.040192712096232625
53	0x3fa3e88a4e6e308f	0.03888351638224307
54	0x3f90c970df709a73	0.01639343608635575
55	0x3f9cfb26a881bff2	0.02830181506618596
56	0xbfa13b98ed3c7611	-0.03365781684827252
57	0x3fb5e0bd7e56c8b6	0.08546051344345326
58	0xbfbbec3e41e74af0	-0.10907353505107742
59	0x3fb8da59e4d70022	0.0970817741099386
60	0x3fb8ab17cce0b44d	0.09636067153833601
61	0x3fad7db13f39e651	0.05759958168796387
62	0x3f91afeae41f0d81	0.017272634671611
63	0xbf66784f10a6283b	-0.0027429146040889563
64	0x3fb1fbc0ab73ac3c	0.07024769006572823
65	0xbfa1d8eeaabf65d4	-0.03485818704912061
66	0x3faeb0f6b026273b	0.0599438753152541
67	0x3fb0641485391038	0.06402710201751993
68	0xbfba2d953bf2af05	-0.10225804055761152
69	0x3fbc96fdb9c95495	0.11167894159128118
70	0x3fc08974c0f886d5	0.12919482633974746
71	0xbfb1763c27fa5e33	-0.06821037269616496
72	0x3fbcabcc4ebfa364	0.11199643061230585
73	0x3fb65cb1f1c137c6	0.08735191490379099
74	0x3f92cc6c30ee78ec	0.018357935415786494
75	0xbfa4bcdbdb2d7ac8	-0.04050337839611512
76	0xbf756d1a5ec83f39	-0.005231001862298795
77	0xbfa8b4c8d1cbc7bf	-0.04825427590357333
78	0xbfab97eecdf7cfbe	-0.053893530504779616
79	0xbfaf9822e7d71235	-0.061707583237453546
80	0xbfa8f186b4efea92	-0.04871769865709043
81	0x3f9ff4087b54834a	0.03120435002086034
82	0xbfa518e42e4c2a0a	-0.041205530787994674
83	0xbfbbfe42bfd0949f	-0.10934846098878602
84	0xbf87a0c614670973	-0.01153712033999874
85	0xbf786a15429a02b3	-0.005960543677816221
86	0x3fbea41b2f5e904f	0.11969156176070438
87	0xbfb5752ac9a41950	-0.0838190786635995
88	0x3fa105e2967299c6	0.0332480248119285
89	0x3fb388c8bb2d3a1c	0.07630590982191915
90	0xbfb0c0fd9674cc3c	-0.0654448025059517
91	0xbf8ca20109f97f42	-0.013980873219395232
92	0x3f9078929cbdbdae	0.0160849483649465
93	0xbfc22049a2b4ac8a	-0.1416103405439098
94	0xbf9245245235d792	-0.017841880338401568
95	0xbfad6575346c5bbe	-0.057414686822248026
96	0xbf93c9b24b25f4c2	-0.019324098431287913
97	0x3fb46d46921b8aff	0.07979241435127092
98	0x3f969984f85f972b	0.022070005092152883
99	0xbf7c65b95d66ed21	-0.006932949143841045
100	0xbfafd6b444511f51	-0.062184937800849334
101	0x3fa88512dec4bda0	0.047890271848128
102	0x3fa4b9f71d7c66c2	0.04048130259452655
103	0x3fad7f153879c5f9	0.05761019052887301
104	0xbfbc263935024baa	-0.10995824379123911
105	0xbf9cb9f56b48fd7e	-0.028053126023448886
106	0xbf8d3b7bae213325	-0.014273611308590237
107	0xbfb528647bc2d6d8	-0.08264759084235196
108	0x3fb4c669c3963d8d	0.0811525442606948
109	0xbfafaca96cfbe556	-0.061864180139262245
110	0xbf94213fa579d5b0	-0.019658083414886895
111	0xbfb232df42a686e1	-0.0710887468071877
112	0xbfaeea62ede028dc	-0.060381976640273755
113	0x3fa88a7044bbe165	0.04793120230709994
114	0xbf95130e1ffb5b81	-0.02058050222589314
115	0xbfbdbc9f45c4a10d	-0.11615939572641683
116	0x3fbc4239e2652e58	0.11038553025462627
117	0xbfb4270e07440eb0	-0.07872092893017668
118	0x3f6cf5da6aa651c7	0.003535200686380888
119	0x3f75447b2bd29cc1	0.005192261826926615
120	0xbfa8f80eda11f742	-0.04876753246297351
121	0xbfc0099c7e8748f6	-0.1252933137716991
122	0xbfa1740453d85dce	-0.03408826373577832
123	0xbfa9134f6884044d	-0.04897545004679014
124	0xbf8eec2038ee5e6b	-0.015098811852836755
125	0xbf7c9a10127d479b	-0.006982863218427139
126	0x3f76635cea385eb7	0.005465853642384103
127	0x3fbaa3bcf06d65d2	0.10406094426925641
128	0xbf9450dc5dae0246	-0.01983970948959015
129	0xbfb282b4e47596df	-0.0723069246065182
130	0xbfad1231aeaa0902	-0.056779434748948546
131	0xbfaac9728160a375	-0.05231817082705607
132	0x3fb0230a7cef3f37	0.06303468275222888
133	0xbfb2f9a9fa13ec24	-0.0741220698873098
134	0xbfc1ee265f049188	-0.14008025779288524
135	0x3fb50c0ecb52475b	0.08221523727322959
136	0x3f9e49ba3dc36869	0.029578123111470598
137	0xbf88de22fcb8a0bc	-0.012142442071379704
138	0xbfad0d1a43485015	-0.056740589821998956
139	0x3fb5369a42815f4d	0.08286441920915628
140	0xbf997ccaedf1ca24	-0.024890108845690886
141	0xbfbad4f6b87441ff	-0.10481206897043903
142	0x3fba8cc5a8c053b1	0.1037105118742392
143	0x3f959ed008f507c8	0.02111363463087182
144	0xbf78392033826e5a	-0.005913854394886531
145	0xbfa8fa71b3a7334b	-0.04878573720961884
146	0x3fb878f454a74e24	0.09559561793076249
147	0xbfb774806b163497	-0.09162142385885584
148	0x3f8973052354e908	0.01242641462396367
149	0x3fb6e6715b0f6350	0.08945377801081844
150	0x3f904dbf2fa20f3b	0.015921580583849276
151	0x3fb8a48c85ef8b75	0.09626081724085885
152	0xbf8cbe8ed9caed47	-0.01403533556128046
153	0xbfb37058642de13c	-0.07593300290853205
154	0x3f8d7d155c5a442f	0.014398733979108595
155	0xbfb309049d16b679	-0.07435635409520981
156	0x3f912f2f4d8cfa11	0.016781558140104794
157	0xbfa1c17494b2d874	-0.03467907252472538
158	0xbfb546c72b1fa5e8	-0.08311123659918673
159	0xbf677955abbebb63	-0.0028654740580899437
160	0x3f62ebd875c5a5b9	0.002309725545434485
161	0xbf8585b672845b00	-0.01050894295671645
162	0x3fb97544600daf3e	0.09944560380034503
163	0x3fb2b50adb2dffb5	0.07307498789850693
164	0xbfbb8d3cb71352b9	-0.1076238581620811
165	0x3fbae7c1c435693d	0.10509882965326241
166	0xbfb6d23b9aa677f7	-0.08914539838448819
167	0xbfba0026ce308dcb	-0.10156481298377355
168	0x3fb52f1211fe2dd5	0.08274949015883888
169	0x3fb0162ee312e84b	0.06283848804278695
170	0xbfbaa3a530dce8fe	-0.10405952876036292
171	0xbfb05ec14b8e5beb	-0.06394584746008973
172	0x3f368cfb34b77de1	0.0003440964980807298
173	0xbf5ed8aa5bdea7e1	-0.0018827117596438225
174	0x3faffd44365002d3	0.0624791446971408
175	0x3fb1f684607df048	0.07016780238876763
176	0xbfa8ba97569aa37d	-0.048298577615532225
177	0x3fbe98571b66bfe6	0.11951202792147306
178	0xbf9dcae94866622c	-0.02909435753244531
179	0x3fb18f657936479f	0.06859430512693486
180	0xbfa174beb8835c20	-0.03409381868703343
181	0xbf9fa76962ee1010	-0.0309120623237647
182	0xbfa0e14149ed749f	-0.032968559526787226
183	0xbfae1db73a870262	-0.05882046307988699
184	0x3f7e0784b115d851	0.00733138878546498
185	0x3fa1f8a67f3606cf	0.03510017683858068
186	0xbfa89c33b0f1b436	-0.048066726064327644
187	0xbfb80c59568e37b2	-0.09393843043491648
188	0x3fb9f2fcaff24c7d	0.1013639382893405
189	0xbf921f1c99f96f63	-0.0176968068102349
190	0x3faa02c799aa86de	0.05080245734030851
191	0xbfb05d43bec3714b	-0.06392310530958871
192	0x3f971c3b50eb8ce3	0.022568632902118756
193	0xbf9acc6915cc4cae	-0.026170389132926068
194	0x3fae9fe03a52df0a	0.05981350624045774
195	0x3fa52f98ab21ceba	0.041378756418365595
196	0xbfa30ade24d1513b	-0.037192289347020645
197	0x3fc1e4ec052e6f1e	0.13979864361760347
198	0x3fb2df9afee6da0f	0.07372444842517488
199	0xbfc0e0cb9e353ffc	-0.13186021065712328
200	0xbfaaee795efd70b5	-0.05260066303773795
201	0x3fabe110d651b406	0.054451490556722645
202	0xbfa6d942e386b9e6	-0.04462632205410326
203	0x3f9ef52a63edfdcb	0.03023210749551967
204	0x3f9532997935708b	0.020700834296221642
205	0x3f96e23727b8671a	0.022347318457924016
206	0xbfad8e3a3acae3fc	-0.0577257344024886
207	0xbfb2e7eb05cd96e0	-0.07385128871609536
208	0xbfb670fe5258e639	-0.08766164312773918
209	0xbfbbc4c1c29c9a1a	-0.10847102166426517
210	0xbfae58b3c572c504	-0.059270494320466965
211	0x3fb32a0288570375	0.07485977009402041
212	0xbfb091bbc910b32b	-0.06472371729678332
213	0xbf96bcb24e3ccaa1	-0.022204195046649947
214	0xbfb3fac791bba01b	-0.07804534252102295
215	0xbfa89577ecd3d5a2	-0.048015353831867516
216	0x3fb04a806ba79721	0.06363680485045765
217	0x3fc0591c5e7c2721	0.12771944631122614
218	0xbfb40cf67e7ed9dc	-0.07832279766339617
219	0x3fa996fe248705b9	0.04998010822192662
220	0x3f958380aabadffe	0.02100945512822249
221	0xbfa89b3ea009bc09	-0.04805942252721002
222	0x3fb640fe785d6719	0.08692923010439947
223	0xbf203360037ff8e9	-0.00012360140840423438
224	0x3fb0cd7eb1aa430b	0.06563560330893041
225	0x3f92456cd5f401c6	0.017842960890449587
226	0xbfb4a28b2cc5f544	-0.08060521929833891
227	0x3fb5862d89ffbeda	0.08407864207378726
228	0x3f93c2e29389f8d6	0.019298115019858418
229	0xbfa57af5f2eb3e3d	-0.04195374098128155
230	0xbf84a3f3e8b4db94	-0.010078340090883299
231	0x3fa6670690e84994	0.043754773320091506
232	0xbfb6a130a62c9e1f	-0.08839706475247809
233	0x3fad474f05550640	0.057184667015928614
234	0xbfb8a08281a87359	-0.09619918504217874
235	0x3fb973b4289cbb15	0.09942174903401864
236	0x3f9f3cd1b1b61e64	0.030505444022791997
237	0xbf89e6741a4f9521	-0.012646586468643197
238	0x3fb10ea8444f07ec	0.06662990253155926
239	0xbfa5b6eee34123a5	-0.04241129421331572
240	0xbfb36a4c58b58d3b	-0.07584073224784486
241	0x3f74d40dedc0bd0f	0.00508504334361183
242	0xbf6672dc491a8991	-0.0027403166248671303
243	0x3f98e1a76a6b7c93	0.024298301573136682
244	0x3fa8ce12ad9a975c	0.048447211925391115
245	0xbfa3c7898ec7b0d9	-0.03863172405167043
246	0xbfae16811effb763	-0.0587654447880215
247	0xbf9ff0dec013415a	-0.031192284081784073
248	0x3faa74cae5b052d2	0.051672306574038665
249	0xbfb58f72f9e2096e	-0.08422010994585147
250	0xbfa46d37723de839	-0.03989575643113636
251	0x3faff4fc7c7766c7	0.06241597194066411
252	0xbfaface617cd02dd	-0.061865988164304865
253	0xbfac7faf19c259ac	-0.05566165151064992
254	0x3fb62048b67b82e9	0.08643011527193391
255	0xbf9807c6717a298a	-0.023467159916017923

conv3.bias f8 [24]
0	0x3faec2550054e313	0.060076385775067596
1	0xbfac6f2bdbf046d8	-0.05553566989705211
2	0xbf9494747d9ecd49	-0.02009756104207597
3	0xbf94b203785a072d	-0.020210317822154145
4	0xbfb9c817c0003ece	-0.10070942342303654
5	0xbfac25c7ff88bc55	-0.05497574800789865
6	0x3fb8555e03059354	0.0950526006104842
7	0xbf719ee9fff438a8	-0.004301942884252487
8	0xbfb5554cbf7d05c1	-0.08333282160767565
9	0x3f8532c30004e707	0.01035072654541437
10	0xbfb0ac86bf0b9ade	-0.06513254322235748
11	0xbfae2efea04e1a8b	-0.05895229060029291
12	0x3fa8f31c85e765f6	0.048729792924586166
13	0xbf8ae421febbbd0d	-0.013130441271157279
14	0x3fa7e390ffd0a551	0.046658068873805754
15	0x3fb23201fe4d4f4c	0.07107555826706607
16	0x3fb30c69beec3a95	0.07440815840912259
17	0x3fb388dd0125031c	0.07630711820548836
18	0x3fb8354a81d9b0a5	0.09456315679716683
19	0xbfb70e8e9f357056	-0.09006587397510776
20	0xbfb374263f5a0f13	-0.07599104925799009
21	0x3fa80fb47f4660e4	0.046994820152748834
22	0xbfb2030e1ed6aa91	-0.0703591180123715
23	0x3f884d06ff78aca4	0.011865667983405999

conv4.weight f8 [32, 120, 1, 1]
0	0x3fab48df091155bc	0.05329033837976335
1	0xbfa2598c66152789	-0.03583945032239828
2	0xbf8fdc6ad363e586	-0.015557131363027176
3	0xbfb0a54b9d7aa9bf	-0.06502220720964312
4	0x3f89ebb90aa98ed3	0.012656636846436175
5	0xbfa099691d752da1	-0.032420430036462784
6	0x3fb51c40f8544b28	0.08246236860967981
7	0x3f422b000476e59c	0.0005544424138214546
8	0x3fae1c676543f0b0	0.05881045447492406
9	0xbf9b8c0f525b18b6	-0.026901473428346555
10	0x3fa1931e7e41ac92	0.034325554763961055
11	0xbfb3cea41eb6d3d4	-0.07737184285981807
12	0xbfacf424515ad0dd	-0.0565501546201703
13	0xbf9ba367e075985b	-0.026990531039153925
14	0xbf97908be636a472	-0.02301233856784219
15	0xbf8c28096b289ae8	-0.013748239119263997
16	0xbf9914d40861dfdb	-0.024493515979400953
17	0x3fb16192e7d332ed	0.0678951087931627
18	0xbfb9c6169b90350a	-0.1006788377564655
19	0x3fa453968f11fab2	0.039700226750018955
20	0x3fb382992cc65919	0.07621152251372044
21	0x3f8cc6a36d0fa1d9	0.01405074764802887
22	0xbfb37dac6bda7c0c	-0.07613637574330329
23	0xbfb47cc15c76654e	-0.08002861506829115
24	0x3f950f8cec381d8c	0.020567132871318658
25	0x3fa4763f5a147a4c	0.03996465658768908
26	0x3fb27b923dbcd563	0.07219804770723708
27	0xbf87f74b77b7c81b	-0.011702146140098837
28	0x3fb366c2080cbea1	0.07578671165969776
29	0xbfbc81db1a65e385	-0.11135644335253232
30	0xbf9d7eae7e1c0009	-0.02880356449804825
31	0xbfb1d6c53ecf85d3	-0.0696833875986365
32	0xbf9ecd5c3390b366	-0.030080261847774813
33	0xbfa36df87d518760	-0.03794838456884864
34	0xbf9b4d6b7b544782	-0.02666252079240606
35	0xbf9cff34a86f0e0f	-0.028317282467254453
36	0xbf872d74f5cb1a21	-0.0113171708593543
37	0xbfb962bf5dff37df	-0.0991630177006466
38	0x3fa4b723ffdb9754	0.04045975206626787
39	0x3f99e0f71fa819fa	0.025272237116974218
40	0x3fa35b145a1b237b	0.03780425643851167
41	0xbfba751187013533	-0.10334882303250907
42	0xbfb06f8c18b2c5dc	-0.0642020759867345
43	0xbfb980b596cb679f	-0.09962019855029645
44	0xbfa3a67e268096e1	-0.038379614067066255
45	0xbf9349c3a228d7e2	-0.018836075565751183
46	0xbfb2ab8bad1f33a6	-0.07293007828339046
47	0x3fbb95692646133f	0.10774857696931138
48	0xbf8a943f41ed0296	-0.012978071402927765
49	0x3f9bfa747c6db0b1	0.027322597593795354
50	0xbfaa65fc5cc08731	-0.0515593398306592
51	0xbfb155a71c5a5f3a	-0.06771320764744085
52	0x3fb3047ea18eb489	0.07428733295701496
53	0xbf9c317f0af483ac	-0.027532563251159978
54	0xbfae9d1d2bb119d5	-0.0597924342951505
55	0x3f81daa58e5354f8	0.008717816739969284
56	0x3fa3b6e41ba41d16	0.038504722952035816
57	0xbfa6188fe320b0fd	-0.043156143641995805
58	0x3f833f4013f1c9d2	0.009397984131486323
59	0xbf14061732a0add0	-7.638470256725945e-05
60	0x3fb0e7cc7601c191	0.06603696709658481
61	0x3fa098f40dadeb3d	0.03241694132790094
62	0x3fad2047a092342c	0.05688690028282681
63	0x3fb17f8c4d7c98dd	0.06835247890248604
64	0x3fb1cc749bd7dd31	0.0695259933926209
65	0xbf9aa3b2184b496a	-0.026015074475091472
66	0xbfb38a6ad92becd7	-0.07633083154717056
67	0xbf76320a53f5c073	-0.005418815940501631
68	0xbf9859e838ece0f9	-0.023780468439526612
69	0x3f460f2d093843bf	0.0006731958296218795
70	0x3f72118b60f3dbb9	0.004411262939575993
71	0xbfb8d23f471b71f6	-0.09695811735168278
72	0xbfa8d43424170dc6	-0.0484939855628244
73	0xbfa226e308d2709e	-0.03545293314638907
74	0x3fb171bebcea49d7	0.06814186203181492
75	0x3f976d9aa803d64a	0.02287904406053646
76	0xbfba2fff431ece61	-0.1022948778980264
77	0xbfb3f702af6f1325	-0.07798783095411162
78	0x3f90612f2d016dd6	0.015995728609011405
79	0xbfa2a78b0ec82926	-0.03643450313036771
80	0x3fbc7bbc0e7ce392	0.11126304010112012
81	0x3fb65d8c31972158	0.08736492357923475
82	0x3fbb7ec90dc6c619	0.10740334116305696
83	0x3fbdc0356449905d	0.11621411989614346
84	0xbfa8710184a8d22d	-0.04773716682794702
85	0xbfb29770bd4c3262	-0.07262329694294459
86	0x3f84c960fb70d3d9	0.010149724648821067
87	0x3fa60283a4d9f332	0.042987932084520245
88	0x3fab5852a24f0ee0	0.05340822440441939
89	0xbf435276882fb122	-0.0005896643418714968
90	0xbfa556609806e6c7	-0.04167463165090406
91	0xbfbde61ae061a43a	-0.11679237344800777
92	0xbfa5eb65a4bd6c5e	-0.042811561927657435
93	0x3fb44dc3db2dac20	0.07931160069499343
94	0xbfa33784c90d2fa7	-0.037532949011249976
95	0xbf9c2506114353e2	-0.027484984210634063
96	0xbf8ae037e83d407b	-0.013122975134735029
97	0xbf9511cb0bfe152c	-0.020575687987293964
98	0x3f8802941dfc82c0	0.0117236682559122
99	0x3fa94b49fdf67d79	0.049402534724545207
100	0x3f8e2ee1614e5d84	0.01473785474972434
101	0xbfa1d222dc81d7cd	-0.03480633680094023
102	0x3f93129883c5887f	0.01862562469740014
103	0x3fbcc2a2f3a104ed	0.11234491775487117
104	0xbfb10cb186b5f8b2	-0.06659993685568358
105	0x3fb8c87ba22cf5b8	0.09680912694326238
106	0x3fa4b22826b7e1f1	0.040421728826860355
107	0x3fb2e1cf7bfa704f	0.07375809456647285
108	0x3fa7b45011e45ac3	0.04629755228432011
109	0xbfa215f0b12ccc4b	-0.03532364046841304
110	0x3f9e230b95125772	0.029430561994181877
111	0x3fab63e0704ef20b	0.053496373853224886
112	0xbfacceeec789bdc3	-0.05626627145545229
113	0xbf9960ff89a464bb	-0.024784081245432726
114	0xbfa8a1a66e8867bf	-0.04810829257276294
115	0xbfb9ccd5a32e0396	-0.10078177675133157
116	0xbfb102d5135f1a98	-0.06644946787774086
117	0xbf72753ff01be23d	-0.0045063493323529965
118	0x3fb7d96236082faf	0.09316076106205061
119	0xbfb35240a04b5d52	-0.07547382272183725
120	0x3fa77760ee10368f	0.04583266168638744
121	0xbf9f0635b5a169f1	-0.030297126017424906
122	0x3fb771ce4352bad3	0.09158028739578165
123	0x3f9d90fe02c68c63	0.028873413962753235
124	0xbf8958cdf488d00f	-0.012376412415598307
125	0x3f8cd60d73040fb0	0.014080147812371852
126	0x3fa2878681cb164a	0.03619022688284852
127	0xbfb88fbf1e1370c9	-0.09594339832569
128	0xbf906f6e5f991817	-0.016050076088753053
129	0xbfa82a88c6dc34f5	-0.047199510836529436
130	0x3fa9dc037b11a48c	0.05050669553094975
131	0xbfb35bea9dd7aa7e	-0.07562128404212307
132	0xbfa1574ca921a653	-0.03386916699021172
133	0x3f9550b5eb88d24f	0.020815699101336013
134	0x3fb383f8997da7dd	0.07623246905646348
135	0x3fa6066d96b16fc5	0.043017792363314857
136	0xbfbdf8f9bc01509a	-0.11708031501740593
137	0xbfa5ffdd106cb84f	-0.04296770883080169
138	0x3fb005ede3507de4	0.0625904731718872
139	0xbfa078101b040f7e	-0.0321660073259684
140	0x3f61c66d7c0750fb	0.0021698130005721717
141	0xbf9ca5f41ea7a603	-0.027976812716508103
142	0xbfa927fa05e08f72	-0.0491331226515105
143	0x3fabb52850526f00	0.05411649685376396
144	0x3fac3ecf353b7fed	0.055166697738741145
145	0x3fa2ab4098e1b2a9	0.036462801611241
146	0xbfb4dbd566ac39df	-0.081479394499389
147	0x3fa95883ee15aa51	0.04950344353968162
148	0xbf88ef48ac274d48	-0.012175147775372111
149	0x3f9d204f666cf587	0.028443565966190156
150	0x3fb243c6da165a94	0.07134669136426403
151	0xbf8f69b8975334c0	-0.015338365667412979
152	0x3fa01cff3e049688	0.0314712298589202
153	0xbfb1f66bde7c1103	-0.07016634160760664
154	0xbf70336c8fe5d225	-0.003955291815476635
155	0x3fb88990817b6cb8	0.09584906731781728
156	0x3fa4419f7ddc632b	0.0395631638659267
157	0x3fb359379d5a6c20	0.07558009711867486
158	0xbf488e1562f8cca1	-0.0007493595530320315
159	0xbfb7b7473a7e9c7c	-0.09264035394754616
160	0x3f88041eb79546f9	0.011726608254920988
161	0x3fa23ee947a7791a	0.03563622474369961
162	0xbfb8f06afbbff94c	-0.09741848608243692
163	0x3fc2c667a1fc8eaa	0.14667983445644
164	0xbfa9cda565465b9b	-0.05039708005204276
165	0x3fb24023ae100f36	0.07129118918970509
166	0xbf408ee78ca1da4f	-0.0005053167926821286
167	0x3f83fc684c2334fb	0.009758772681744512
168	0xbf9dd1fd21d608fe	-0.029121356191816432
169	0x3fb7cdf3e2087a3e	0.09298633831392863
170	0x3f937303e69f2fb1	0.01899343581298724
171	0x3fb3d707aad8f08c	0.0774998466594658
172	0xbf610930151dff52	-0.002079576407538677
173	0x3fa2d85570976c77	0.03680674552352852
174	0x3f386a0f57c42bdf	0.000372532602128826
175	0xbf90367420636785	-0.015832724072289323
176	0x3fa4e1ef4fb15936	0.040786245802041085
177	0xbfb18288ddfc7a06	-0.06839805049501288
178	0xbfb48f084f75ec0d	-0.08030750217396605
179	0xbfb8d6c8424207cf	-0.09702731721520695
180	0x3fafbf4eafe3b1a6	0.062006434412839526
181	0x3fa0be79431dd04a	0.03270319885533064
182	0xbfb7ec982a17fbb2	-0.09345389392545547
183	0x3fad8d627e2fd3a4	0.05771930494657987
184	0x3fa7f09057b0acf1	0.046757231430399566
185	0xbfbe3db081fae024	-0.11812880681361598
186	0xbfa87e2358797656	-0.047837357092004026
187	0x3fc01ffd3ffd94e4	0.1259762346700547
188	0x3f8bb0d0271f4d56	0.013520837968747184
189	0x3fb38fd46e7e0aa7	0.07641341874663486
190	0x3f8f6d2a678c84ae	0.01534493568903125
191	0xbfb73721365af2f1	-0.09068496300728747
192	0xbf496e90f348759b	-0.0007761199727302383
193	0xbfc13c348a602dcf	-0.13464981800676276
194	0x3f85787f3e82f913	0.010483736129000698
195	0x3f8ec870a28ac634	0.015030746422186693
196	0xbfa35586f2421f4a	-0.03776189524893299
197	0xbfad328b5b31d4a7	-0.05702624786582904
198	0x3fae8c984f6b227d	0.059666404432907584
199	0xbfb0b3cc71c0e6ef	-0.06524350907502784
200	0xbfaba2c26071361b	-0.05397612979195917
201	0xbfb521b53b5a6484	-0.08254559229898645
202	0x3fa1f8d06f75a8bf	0.03510142670241256
203	0x3fb1cfe7696560db	0.06957861254830126
204	0x3fb637fc84a9abf0	0.08679178465688131
205	0xbfb23e4c69a8fd3f	-0.07126309947579033
206	0x3f9c8be37e722c32	0.027877382843638006
207	0x3fbc047e787e19e3	0.10944357339585724
208	0xbfa3f21bf36bfd59	-0.038956521477298174
209	0x3f97e68bceb641c1	0.023340401164718253
210	0x3fb30adea27e90a0	0.07438460795543955
211	0xbfb259d3ab33615a	-0.07168314866738026
212	0xbfa2e01b65baa175	-0.036866050880521785
213	0xbfb36ffb7fa993cd	-0.07592746607549757
214	0x3f9e75b0da6e7123	0.02974582989882991
215	0xbfad5899d985e426	-0.057316596797086825
216	0x3f9973420b439497	0.02485373681783595
217	0x3f7f129c24f2a0f5	0.007586107195642668
218	0x3f9469a60f7c89d0	0.019934267707080455
219	0xbf7cdde12a9ae121	-0.00704753833422725
220	0x3f6b0062f04ed26a	0.003296082725194706
221	0xbfb2ec84153fc7f9	-0.07392144697931248
222	0xbfa38e732b7e70c4	-0.0381961813538694
223	0xbf842ffe981b3828	-0.009857167260090519
224	0xbfa7294f62d1172c	-0.045237046063034775
225	0xbfb0a56804496042	-0.0650239000764268
226	0xbfb00b3cf5529319	-0.06267148007698288
227	0xbfa4a9b4ee188731	-0.040357259811811715
228	0x3f86c94b678a5391	0.011126126382160513
229	0xbfa64f27d7c16738	-0.043572659575785655
230	0x3fa453e0548a0014	0.0397024253079509
231	0x3f995b989232fb49	0.024763473437583703
232	0x3fb1e2997d6077de	0.06986388503034344
233	0x3fa844c0b406e4c3	0.04739954183191621
234	0x3f9d4b5b18b63d27	0.0286077722390107
235	0x3f9bf6a6e202d9f6	0.02730808977568163
236	0x3f6f8b7303b300dc	0.00385067428359785
237	0xbf9c549be1d0edf3	-0.027666507394526318
238	0xbf8ed85008ebad9a	-0.015061021110759399
239	0x3fb63792b986c037	0.08678547887279896
240	0x3fa2764bbfec3971	0.03605877607161546
241	0x3fb1b02baa25549c	0.06909439948988666
242	0x3fa3132d21141eea	0.03725567845145668
243	0xbfaa9c4953f6cfb0	-0.05197362089111779
244	0x3f8a2308c938591b	0.012762135163069168
245	0xbfa2ff796be111fc	-0.0371053642452672
246	0xbfa59c6a624fa0d0	-0.042208981037960336
247	0x3fa8a42fbab28a2e	0.048127643146717566
248	0x3f8f8f4f2848f47b	0.015410059372806586
249	0x3fba77211a91cd11	0.1033802690379171
250	0x3fad402d1a69dc06	0.057130250429445126
251	0xbf9401444849afe0	-0.01953608218393288
252	0x3fabfe3881b14564	0.05467392523918127
253	0xbfaba1692b8ef10d	-0.05396584183424311
254	0xbf6a2d2224477138	-0.0031953493910191998
255	0xbfbe81a9491b8e21	-0.11916597399572783

conv4.bias f8 [32]
0	0x3fb5d3e6423baeac	0.08526457898158907
1	0x3fb2d8887fbf7a3a	0.07361653441282892
2	0x3fa1ecc800999eb2	0.03500962264371078
3	0x3fad20b800a9f7f9	0.056890249329612126
4	0x3fb38226ffd028e2	0.07620471711576074
5	0xbfaae2353d996779	-0.05250707985824383
6	0xbfa803b2ffb9895a	-0.04690322276725807
7	0x3f7deeec0307ed92	0.007307931824921525
8	0xbfb5dd1f5f88db6d	-0.08540531237018252
9	0x3f84bf9ffcd13ce8	0.01013112058913497
10	0x3fb4efac8216aae4	0.08178213287343855
11	0xbf8d61fcfe732cd9	-0.014347054019160076
12	0xbfa61eda7f51611d	-0.04320414356397093
13	0xbf8301d200b3f3c2	-0.00928081574101636
14	0xbf2c1e40118ce75e	-0.00021452457510822814
15	0xbfaa8e9041ad1f68	-0.05186892320358433
16	0x3fb2f100c025595d	0.07398991290151487
17	0x3fac3783fe7e3f29	0.05511105043035364
18	0xbfb5863f80624976	-0.0840797127187097
19	0x3fa347198088564c	0.03765182203293857
20	0x3fb3ca77006f82e8	0.07730811844477226
21	0xbfa1f710403085e7	-0.03508806975902328
22	0xbf7f944ffe578a29	-0.007709801172924227
23	0x3f76479dff39852e	0.005439393211049732
24	0x3fa12099bd017a94	0.03345184738349363
25	0x3f87ff3600c4b83b	0.011717245005083856
26	0x3fb67bf8bec1f20c	0.08782915742080649
27	0x3fa394a1024abe64	0.03824332383134957
28	0xbfb6fe5a00d76656	-0.08981859703580972
29	0xbfb00da6bfe4d13a	-0.06270830330760627
30	0xbf953176803bdfc7	-0.020696498467230897
31	0x3fa653bb016fa4e7	0.04360756294756545
